cnn.tflite (tflite, 29600 bytes, 5 tensors)

sequential_2/conv1d_1/BiasAdd;sequential_2/conv1d_1/conv1d/Squeeze;sequential_2/conv1d_1/BiasAdd/ReadVariableOp/resource;sequential_2/conv1d_1/conv1d f4 [32]
00000000: d566 1cbf 43c3 ed3d cb77 7dbc e63d d73d
00000010: 1da5 053f 0f27 0bc0 3cae 07c0 6cd6 94bf
00000020: 1d43 00c0 dfdf 49bf ecd2 99be 1867 c8be
00000030: 847b 98bc 77b5 20bf 7dd3 fdbd 7f31 c2bf
00000040: df5f b23d e382 9dbf 45d8 fcbe c839 23c0
00000050: a236 843e e2d9 52bf 600b b5be 8dda 2ebf
00000060: ebf2 84bf ee28 15be d362 41bf 151d 31bf
00000070: 6cbc d2bd 03b6 fabf 8456 e4bf 4c8b 2bbf
-0.6109441 0.11609509 -0.015470455 0.10509853 0.5220507 -2.174259 -2.1200094 -1.1627936
-2.0040963 -0.78857225 -0.30043733 -0.39141154 -0.018613584 -0.62776893 -0.12393854 -1.5171355
0.08709692 -1.2305568 -0.4938375 -2.5504017 0.25822932 -0.8236371 -0.3536024 -0.6830223
-1.0386633 -0.14566395 -0.7554142 -0.69185 -0.10289845 -1.9586796 -1.7838902 -0.67009425

sequential_2/conv1d_1/conv1d i1 [32, 1, 72, 9]
00000000: 2a0b 06ff 07ff fe02 fe24 0208 ff03 ff01
00000010: fefd 25fe 07fe 02ff 02fe ff22 fb07 00fd
00000020: 0000 02fc 22fb 0802 fb02 0101 fc1b fd08
00000030: 03fb fffe fe00 17fb 0501 f901 0200 0014
00000040: fc06 01fc 0101 0101 14fd 01ff fb00 fe01
00000050: fc15 fe00 02ff fe01 ffff 1205 01fe fc02
00000060: 0201 000f 0504 fcfc ff02 01fd 1104 ff03
00000070: fc02 01ff 000f 0103 05fe ffff fffe 0f00
00000080: 0304 fe00 00fd fc0d 0402 04fe 0101 fefd
00000090: 0c06 fe01 0200 0000 fe0a 0701 0001 02ff
000000a0: ffff 0a0c 00fd 0100 fefe 010d 0ffe fefd
000000b0: feff fdff 0d0b fdf6 ffff 02fe fe09 04fd
000000c0: f900 fffe feff 0906 fdf7 fd00 00ff fd09
000000d0: 05fe fafe 01ff fe00 0604 fdf6 01fe 0101
000000e0: fe06 06fd ff00 00fe 01ff 0705 fe03 0102
000000f0: ff01 fe03 05ff ff02 fe00 00fe 0406 fcff
42 11 6 -1 7 -1 -2 2
-2 36 2 8 -1 3 -1 1
-2 -3 37 -2 7 -2 2 -1
2 -2 -1 34 -5 7 0 -3
0 0 2 -4 34 -5 8 2
-5 2 1 1 -4 27 -3 8
3 -5 -1 -2 -2 0 23 -5
5 1 -7 1 2 0 0 20
-4 6 1 -4 1 1 1 1
20 -3 1 -1 -5 0 -2 1
-4 21 -2 0 2 -1 -2 1
-1 -1 18 5 1 -2 -4 2
2 1 0 15 5 4 -4 -4
-1 2 1 -3 17 4 -1 3
-4 2 1 -1 0 15 1 3
5 -2 -1 -1 -1 -2 15 0
3 4 -2 0 0 -3 -4 13
4 2 4 -2 1 1 -2 -3
12 6 -2 1 2 0 0 0
-2 10 7 1 0 1 2 -1
-1 -1 10 12 0 -3 1 0
-2 -2 1 13 15 -2 -2 -3
-2 -1 -3 -1 13 11 -3 -10
-1 -1 2 -2 -2 9 4 -3
-7 0 -1 -2 -2 -1 9 6
-3 -9 -3 0 0 -1 -3 9
5 -2 -6 -2 1 -1 -2 0
6 4 -3 -10 1 -2 1 1
-2 6 6 -3 -1 0 0 -2
1 -1 7 5 -2 3 1 2
-1 1 -2 3 5 -1 -1 2
-2 0 0 -2 4 6 -4 -1

sequential_2/dense_5/BiasAdd/ReadVariableOp/resource f4 [32]
00000000: 42a1 7cbe 78f3 3a3f acdc b0ba 6011 5e3f
00000010: 5c32 313f 3ca3 9ebe 3637 373f 744e fdbe
00000020: 1719 45be 3392 df3e 90f1 6cbe fdcd e8bd
00000030: 0906 4a3d 5596 b93d abb0 b5be 3a5b 49be
00000040: 9875 9ebe ed07 82be 3edc ec3d c3e7 3dbe
00000050: d6ce 51be 3789 8d3e e965 333f cf9c 94bf
00000060: dd7d 48be fb87 1ebe 17dd b63e eb44 afbe
00000070: 578b 27be 9ce7 193f e800 d7be 4e83 49be
-0.2467089 0.73027754 -0.00134935 0.8674526 0.6921747 -0.30983913 0.7156862 -0.49473917
-0.19247852 0.4366623 -0.23139024 -0.11367414 0.04932216 0.09061877 -0.3548635 -0.19663706
-0.30949092 -0.25396672 0.11565445 -0.18545441 -0.20489058 0.2764375 0.7007738 -1.1610354
-0.19579263 -0.1548156 0.35715553 -0.34232268 -0.16361748 0.6011903 -0.4199288 -0.19678995

sequential_2/dense_5/Tensordot/MatMul i1 [32, 32] scale=0.023817584 zero_point=0
00000000: f0f0 f4f4 08fe 05f3 f1fa 01ed f8fa f7f9
00000010: 06f6 fdf5 eff2 f9ff f2f0 0405 fbf0 0205
00000020: 06cf f805 0003 01fd f808 0b07 c803 faff
00000030: 0104 0303 fdfc 020c fcfe fd05 f4ff fc0d
00000040: f304 fbf5 fd03 f806 f8f7 deff f30c 00f2
00000050: 04f8 fdf6 fd17 fcff 0300 f4fa 020a 03eb
00000060: fcf8 f703 eefd fd02 0a06 f5fe f904 0503
00000070: 0408 ff02 f804 f605 0efb 010c 0102 0704
00000080: da00 0603 07ff ff02 01f9 04f9 fdf7 08ff
00000090: 0300 fafc 07f8 07f3 0509 04fd 05fb 02ff
000000a0: fefb 00f6 f9fe f302 fef6 01fa f402 03fd
000000b0: ff00 03f6 03f0 fa00 f8f9 eff5 f0fa fff5
000000c0: cffc fe06 fb01 f6f5 ff01 faf7 050b 0202
000000d0: 05ff 0dfc 06cf fef4 f905 fbf7 020e fd18
000000e0: 05fb f504 02fd fe05 fd03 0c0b fef7 0602
000000f0: fe01 fd00 02fc f90b fd07 0606 eefa fa05
-0.38108134 -0.38108134 -0.285811 -0.285811 0.19054067 -0.047635168 0.11908792 -0.3096286
-0.35726374 -0.1429055 0.023817584 -0.45253408 -0.19054067 -0.1429055 -0.21435826 -0.16672309
0.1429055 -0.23817584 -0.07145275 -0.2619934 -0.40489894 -0.33344617 -0.16672309 -0.023817584
-0.33344617 -0.38108134 0.095270336 0.11908792 -0.11908792 -0.38108134 0.047635168 0.11908792
0.1429055 -1.1670616 -0.19054067 0.11908792 0.0 0.07145275 0.023817584 -0.07145275
-0.19054067 0.19054067 0.2619934 0.16672309 -1.3337847 0.07145275 -0.1429055 -0.023817584
0.023817584 0.095270336 0.07145275 0.07145275 -0.07145275 -0.095270336 0.047635168 0.285811
-0.095270336 -0.047635168 -0.07145275 0.11908792 -0.285811 -0.023817584 -0.095270336 0.3096286
-0.3096286 0.095270336 -0.11908792 -0.2619934 -0.07145275 0.07145275 -0.19054067 0.1429055
-0.19054067 -0.21435826 -0.8097979 -0.023817584 -0.3096286 0.285811 0.0 -0.33344617
0.095270336 -0.19054067 -0.07145275 -0.23817584 -0.07145275 0.5478044 -0.095270336 -0.023817584
0.07145275 0.0 -0.285811 -0.1429055 0.047635168 0.23817584 0.07145275 -0.5001693
-0.095270336 -0.19054067 -0.21435826 0.07145275 -0.4287165 -0.07145275 -0.07145275 0.047635168
0.23817584 0.1429055 -0.2619934 -0.047635168 -0.16672309 0.095270336 0.11908792 0.07145275
0.095270336 0.19054067 -0.023817584 0.047635168 -0.19054067 0.095270336 -0.23817584 0.11908792
0.33344617 -0.11908792 0.023817584 0.285811 0.023817584 0.047635168 0.16672309 0.095270336
-0.90506816 0.0 0.1429055 0.07145275 0.16672309 -0.023817584 -0.023817584 0.047635168
0.023817584 -0.16672309 0.095270336 -0.16672309 -0.07145275 -0.21435826 0.19054067 -0.023817584
0.07145275 0.0 -0.1429055 -0.095270336 0.16672309 -0.19054067 0.16672309 -0.3096286
0.11908792 0.21435826 0.095270336 -0.07145275 0.11908792 -0.11908792 0.047635168 -0.023817584
-0.047635168 -0.11908792 0.0 -0.23817584 -0.16672309 -0.047635168 -0.3096286 0.047635168
-0.047635168 -0.23817584 0.023817584 -0.1429055 -0.285811 0.047635168 0.07145275 -0.07145275
-0.023817584 0.0 0.07145275 -0.23817584 0.07145275 -0.38108134 -0.1429055 0.0
-0.19054067 -0.16672309 -0.40489894 -0.2619934 -0.38108134 -0.1429055 -0.023817584 -0.2619934
-1.1670616 -0.095270336 -0.047635168 0.1429055 -0.11908792 0.023817584 -0.23817584 -0.2619934
-0.023817584 0.023817584 -0.1429055 -0.21435826 0.11908792 0.2619934 0.047635168 0.047635168
0.11908792 -0.023817584 0.3096286 -0.095270336 0.1429055 -1.1670616 -0.047635168 -0.285811
-0.16672309 0.11908792 -0.11908792 -0.21435826 0.047635168 0.33344617 -0.07145275 0.571622
0.11908792 -0.11908792 -0.2619934 0.095270336 0.047635168 -0.07145275 -0.047635168 0.11908792
-0.07145275 0.07145275 0.285811 0.2619934 -0.047635168 -0.21435826 0.1429055 0.047635168
-0.047635168 0.023817584 -0.07145275 0.0 0.047635168 -0.095270336 -0.16672309 0.2619934
-0.07145275 0.16672309 0.1429055 0.1429055 -0.4287165 -0.1429055 -0.1429055 0.11908792

sequential_2/dense_6/Tensordot/MatMul f4 [1, 32]
00000000: 2bbf 06bc 167f 9ebd 541c 27bd 42a8 01bd
00000010: 2fc3 703d 09d8 143c 374f 293d 10e3 433d
00000020: 7862 54bd a07a 78bd 1ac0 a43d 0f0e f33c
00000030: baf8 a93c 2088 68bd a327 603d f15d eb3c
00000040: 97cb 88bb 69df 763d de3f fa3c 6c71 25bd
00000050: de96 00bd 9cf8 263d 793a d3bd 058d f93d
00000060: d5e0 03bd 3054 47be 1a86 92bd 6087 f23a
00000070: 59ef c6bb c247 d6bd 5b38 d0bb 5c07 35bd
-0.008224289 -0.077390835 -0.0407985 -0.031654604 0.05877989 0.00908471 0.04133531 0.047823966
-0.05185172 -0.06066382 0.08044453 0.02966979 0.020748485 -0.056770444 0.0547253 0.028731318
-0.0041746604 0.060271654 0.030548032 -0.04039137 -0.03139388 0.040764436 -0.10313887 0.121851005
-0.03219684 -0.19465709 -0.07154484 0.001850348 -0.006071013 -0.104629055 -0.0063543743 -0.04419647
