dnn.tflite (tflite, 25344 bytes, 5 tensors)

sequential/dense/BiasAdd/ReadVariableOp/resource f4 [32]
00000000: d6f3 dbbf b9ef cebe 944e 75bd e1a6 06bf
00000010: e3b4 80be fbef 8b3e c960 8abf 9c01 c5bf
00000020: b714 62bf 677b 93bd 990c c83e 8832 b1be
00000030: 634e ddbf 6608 6fbf 0fc6 e7bd 35bc 00c0
00000040: f0f9 aebf 37fb 18bf 2651 c2bf 3f86 d5bf
00000050: 02c1 c8bf c13f edbe e6fa d23d 0463 b2bf
00000060: 1cd8 c53e bf14 cfbf 2bcd 1bc0 400a 88bf
00000070: eb84 b8bf 2cc6 48bf cc6f f4bd a209 e33d
-1.7183788 -0.4041727 -0.05988939 -0.52598387 -0.25138006 0.27331528 -1.0810786 -1.5391116
-0.8831286 -0.072012715 0.3907211 -0.34608865 -1.7289547 -0.9337219 -0.113170736 -2.0114872
-1.3670025 -0.59758323 -1.5181015 -1.6681594 -1.5683901 -0.46337703 0.10301761 -1.3936467
0.3864144 -1.6178206 -2.4343975 -1.0628128 -1.4415563 -0.78427386 -0.11935386 0.11085822

sequential/dense_1/BiasAdd/ReadVariableOp/resource f4 [32]
00000000: a2eb cebe ac1e 90be 97e2 52be 3ac8 083e
00000010: eca2 cdbe 6b0c 0ebf 3c28 87be bca2 cf3c
00000020: 0a0c dfbe c58c 88be e8b0 643e 6435 ca3e
00000030: e745 8abe 7afa fc3d 176b 8cbf ae43 c3bc
00000040: f292 5cbe 8897 4d3f 384c 1bbd f74c 653e
00000050: d860 33be cf9b 17be 00d1 493f 198f f83e
00000060: 2bce 54be 2e55 7c3e b8f9 5fbe 8911 1abe
00000070: 0e20 aabc 43a2 033f 3898 013f b730 72bf
-0.4041415 -0.281484 -0.2059425 0.1335763 -0.40163362 -0.554877 -0.26397884 0.025346152
-0.43563873 -0.266699 0.2233311 0.3949386 -0.27006456 0.12352462 -1.0970181 -0.023835983
-0.2154043 0.80309343 -0.037914485 0.22392641 -0.17517412 -0.1480553 0.78834534 0.48546675
-0.20781772 0.24641868 -0.21872604 -0.15045752 -0.020767238 0.51419467 0.5062289 -0.9460558

sequential/dense/MatMul i1 [32, 648] scale=0.036414783 zero_point=0
00000000: 0403 ff03 14fe 0200 fb01 00ff 0415 feff
00000010: 0000 02fe 0002 1100 0202 fe03 fcfe 010f
00000020: 0002 fffb 03fe fdfe 0ffe fe03 fd03 fcfd
00000030: 0310 ff00 01ff 01fd 0102 0f00 0002 fb02
00000040: fbfe 030f 0201 00fb 00f9 fe01 0bff 0200
00000050: fffe fb01 fe0b 01ff fffd fefc fe00 0a00
00000060: 0201 fffd fefd fd0a ff02 02fb fefd fefc
00000070: 0c02 ff03 fbf9 fdfe fd0c 0203 02fe f9fd
00000080: fdf8 0aff 02ff fbfa 00fd fa06 ff00 0100
00000090: fcfd fff9 0501 fe02 fdf9 fcfc f807 ff01
000000a0: fffc f901 fff7 0602 00ff fcf9 fefb f902
000000b0: 00fe 00fd fa00 fdf7 0402 0000 fff9 00fc
000000c0: f504 0102 02fe f601 fef7 03fe 0103 fcf7
000000d0: 03fc f803 fe02 0200 f604 fef8 05fe fe01
000000e0: 00fa 07fe fa02 00ff fefe f606 fffe 01fd
000000f0: ffff fef7 09fc fa06 fe00 02fe f805 fdf9
0.14565913 0.10924435 -0.036414783 0.10924435 0.7282957 -0.07282957 0.07282957 0.0
-0.18207392 0.036414783 0.0 -0.036414783 0.14565913 0.7647104 -0.07282957 -0.036414783
0.0 0.0 0.07282957 -0.07282957 0.0 0.07282957 0.61905134 0.0
0.07282957 0.07282957 -0.07282957 0.10924435 -0.14565913 -0.07282957 0.036414783 0.54622173
0.0 0.07282957 -0.036414783 -0.18207392 0.10924435 -0.07282957 -0.10924435 -0.07282957
0.54622173 -0.07282957 -0.07282957 0.10924435 -0.10924435 0.10924435 -0.14565913 -0.10924435
0.10924435 0.58263654 -0.036414783 0.0 0.036414783 -0.036414783 0.036414783 -0.10924435
0.036414783 0.07282957 0.54622173 0.0 0.0 0.07282957 -0.18207392 0.07282957
-0.18207392 -0.07282957 0.10924435 0.54622173 0.07282957 0.036414783 0.0 -0.18207392
0.0 -0.2549035 -0.07282957 0.036414783 0.4005626 -0.036414783 0.07282957 0.0
-0.036414783 -0.07282957 -0.18207392 0.036414783 -0.07282957 0.4005626 0.036414783 -0.036414783
-0.036414783 -0.10924435 -0.07282957 -0.14565913 -0.07282957 0.0 0.36414784 0.0
0.07282957 0.036414783 -0.036414783 -0.10924435 -0.07282957 -0.10924435 -0.10924435 0.36414784
-0.036414783 0.07282957 0.07282957 -0.18207392 -0.07282957 -0.10924435 -0.07282957 -0.14565913
0.4369774 0.07282957 -0.036414783 0.10924435 -0.18207392 -0.2549035 -0.10924435 -0.07282957
-0.10924435 0.4369774 0.07282957 0.10924435 0.07282957 -0.07282957 -0.2549035 -0.10924435
-0.10924435 -0.29131827 0.36414784 -0.036414783 0.07282957 -0.036414783 -0.18207392 -0.2184887
0.0 -0.10924435 -0.2184887 0.2184887 -0.036414783 0.0 0.036414783 0.0
-0.14565913 -0.10924435 -0.036414783 -0.2549035 0.18207392 0.036414783 -0.07282957 0.07282957
-0.10924435 -0.2549035 -0.14565913 -0.14565913 -0.29131827 0.2549035 -0.036414783 0.036414783
-0.036414783 -0.14565913 -0.2549035 0.036414783 -0.036414783 -0.32773304 0.2184887 0.07282957
0.0 -0.036414783 -0.14565913 -0.2549035 -0.07282957 -0.18207392 -0.2549035 0.07282957
0.0 -0.07282957 0.0 -0.10924435 -0.2184887 0.0 -0.10924435 -0.32773304
0.14565913 0.07282957 0.0 0.0 -0.036414783 -0.2549035 0.0 -0.14565913
-0.4005626 0.14565913 0.036414783 0.07282957 0.07282957 -0.07282957 -0.36414784 0.036414783
-0.07282957 -0.32773304 0.10924435 -0.07282957 0.036414783 0.10924435 -0.14565913 -0.32773304
0.10924435 -0.14565913 -0.29131827 0.10924435 -0.07282957 0.07282957 0.07282957 0.0
-0.36414784 0.14565913 -0.07282957 -0.29131827 0.18207392 -0.07282957 -0.07282957 0.036414783
0.0 -0.2184887 0.2549035 -0.07282957 -0.2184887 0.07282957 0.0 -0.036414783
-0.07282957 -0.07282957 -0.36414784 0.2184887 -0.036414783 -0.07282957 0.036414783 -0.10924435
-0.036414783 -0.036414783 -0.07282957 -0.32773304 0.32773304 -0.14565913 -0.2184887 0.2184887
-0.07282957 0.0 0.07282957 -0.07282957 -0.29131827 0.18207392 -0.10924435 -0.2549035

sequential/dense_1/MatMul i1 [32, 32] scale=0.019225238 zero_point=0
00000000: f401 f2ee f0f9 13f2 0b03 05e8 f50e 05ed
00000010: f4e8 dbf1 e802 ea0e e9fd f7f7 efff e9fc
00000020: 01f8 04eb 06fb 0303 f9fd fbf6 edfd f0fd
00000030: eef1 f5fd 09fa 0105 ee02 00ea f1fc ecf4
00000040: f902 0902 f704 deea f2f5 eefb fdde f801
00000050: f7e8 01eb e7e4 fef1 fced f2f4 facb 0a05
00000060: e501 00fa f5f3 febc fc09 ef05 0113 0007
00000070: f2f3 f2f7 f8fb f5ec d1ea ede3 f9cd 09fb
00000080: eff5 05ee ebf9 fb07 04e2 f809 feff e20a
00000090: fef8 fff1 f8f9 10fd f8f2 ebfc ebf7 e108
000000a0: 01fd f1fb e9fa 05ff ecf1 e8ff 0dfd 0106
000000b0: f4ea f0fd f3ec eafc fdf4 e7f0 e307 fff6
000000c0: fce9 f105 fbfc fdf2 01e7 0d0b 060d e9f7
000000d0: 00f7 fbf1 06fa d700 fffd ed09 0500 09fc
000000e0: ef12 0501 eada f2db f2fe 0200 f40d f605
000000f0: 0304 feec fe06 0b00 eb06 f400 0af0 e4e4
-0.23070285 0.019225238 -0.26915333 -0.3460543 -0.3076038 -0.13457666 0.36527953 -0.26915333
0.21147762 0.05767571 0.09612619 -0.4614057 -0.21147762 0.26915333 0.09612619 -0.36527953
-0.23070285 -0.4614057 -0.7113338 -0.28837857 -0.4614057 0.038450476 -0.42295524 0.26915333
-0.44218048 -0.05767571 -0.17302714 -0.17302714 -0.32682905 -0.019225238 -0.44218048 -0.07690095
0.019225238 -0.1538019 0.07690095 -0.40373 0.11535142 -0.09612619 0.05767571 0.05767571
-0.13457666 -0.05767571 -0.09612619 -0.19225238 -0.36527953 -0.05767571 -0.3076038 -0.05767571
-0.3460543 -0.28837857 -0.21147762 -0.05767571 0.17302714 -0.11535142 0.019225238 0.09612619
-0.3460543 0.038450476 0.0 -0.42295524 -0.28837857 -0.07690095 -0.38450477 -0.23070285
-0.13457666 0.038450476 0.17302714 0.038450476 -0.17302714 0.07690095 -0.6536581 -0.42295524
-0.26915333 -0.21147762 -0.3460543 -0.09612619 -0.05767571 -0.6536581 -0.1538019 0.019225238
-0.17302714 -0.4614057 0.019225238 -0.40373 -0.48063093 -0.53830665 -0.038450476 -0.28837857
-0.07690095 -0.36527953 -0.26915333 -0.23070285 -0.11535142 -1.0189376 0.19225238 0.09612619
-0.5190814 0.019225238 0.0 -0.11535142 -0.21147762 -0.24992809 -0.038450476 -1.3073162
-0.07690095 0.17302714 -0.32682905 0.09612619 0.019225238 0.36527953 0.0 0.13457666
-0.26915333 -0.24992809 -0.26915333 -0.17302714 -0.1538019 -0.09612619 -0.21147762 -0.38450477
-0.9035862 -0.42295524 -0.36527953 -0.5575319 -0.13457666 -0.9804871 0.17302714 -0.09612619
-0.32682905 -0.21147762 0.09612619 -0.3460543 -0.40373 -0.13457666 -0.09612619 0.13457666
0.07690095 -0.57675713 -0.1538019 0.17302714 -0.038450476 -0.019225238 -0.57675713 0.19225238
-0.038450476 -0.1538019 -0.019225238 -0.28837857 -0.1538019 -0.13457666 0.3076038 -0.05767571
-0.1538019 -0.26915333 -0.40373 -0.07690095 -0.40373 -0.17302714 -0.5959824 0.1538019
0.019225238 -0.05767571 -0.28837857 -0.09612619 -0.44218048 -0.11535142 0.09612619 -0.019225238
-0.38450477 -0.28837857 -0.4614057 -0.019225238 0.24992809 -0.05767571 0.019225238 0.11535142
-0.23070285 -0.42295524 -0.3076038 -0.05767571 -0.24992809 -0.38450477 -0.42295524 -0.07690095
-0.05767571 -0.23070285 -0.48063093 -0.3076038 -0.5575319 0.13457666 -0.019225238 -0.19225238
-0.07690095 -0.44218048 -0.28837857 0.09612619 -0.09612619 -0.07690095 -0.05767571 -0.26915333
0.019225238 -0.48063093 0.24992809 0.21147762 0.11535142 0.24992809 -0.44218048 -0.17302714
0.0 -0.17302714 -0.09612619 -0.28837857 0.11535142 -0.11535142 -0.7882348 0.0
-0.019225238 -0.05767571 -0.36527953 0.17302714 0.09612619 0.0 0.17302714 -0.07690095
-0.32682905 0.3460543 0.09612619 0.019225238 -0.42295524 -0.73055905 -0.26915333 -0.7113338
-0.26915333 -0.038450476 0.038450476 0.0 -0.23070285 0.24992809 -0.19225238 0.09612619
0.05767571 0.07690095 -0.038450476 -0.38450477 -0.038450476 0.11535142 0.21147762 0.0
-0.40373 0.11535142 -0.23070285 0.0 0.19225238 -0.3076038 -0.53830665 -0.53830665

sequential/dense_2/MatMul f4 [1, 32]
00000000: 060d b43d fcde 93bc 0d6b ab3d 8123 8cbd
00000010: 676f 5c3c 7eb1 ac3c 10b4 aebd 844b 813d
00000020: 1d61 b4bc e8e0 083e 02b6 a7bc 502b dbbc
00000030: a033 fabd 0593 15bd db05 f03c a895 e93d
00000040: 8745 d13d e019 813d d96c dbbc e13c e0bc
00000050: 3c50 b43d e401 56bd ec52 9f3d d805 053d
00000060: 123f b0bb 57d7 d53d 9978 103d 8fef df3b
00000070: 8966 0a3d fdb0 e7bc bc84 693d 8036 babc
0.087915465 -0.018050663 0.08370028 -0.06842709 0.013454295 0.021080729 -0.08530438 0.063132316
-0.022018963 0.13367045 -0.02047253 -0.026754051 -0.12216878 -0.036517162 0.029299667 0.11405498
0.102183394 0.063037634 -0.026785301 -0.02737278 0.08804366 -0.052247897 0.07779488 0.032476276
-0.0053786123 0.104414634 0.03527126 0.0068339775 0.03378919 -0.028282637 0.05701135 -0.022731066
