dnn_micro.tflite (tflite, 6128 bytes, 3 tensors)

sequential/dense/MatMul i1 [32, 72] scale=0.011983243 zero_point=0
00000000: 2d0c f508 f8fa 2615 0cf2 ec0c 0b0e f111
00000010: 10ff 0905 ef12 ef0d 1800 f0f4 1000 050a
00000020: fa10 0404 f314 0df8 0ff5 f5f5 f905 ecfd
00000030: e014 0f14 fc0d cc01 f5ef 02f0 aef9 fd0b
00000040: 0c05 95f5 fe02 04f8 ce0d 0301 f6ef e51f
00000050: f505 0f0d d00b 06f2 0906 e7fc 12f3 ef14
00000060: ec03 f2f4 0ef1 dffc 0b06 ff06 d902 0707
00000070: f101 fa0a 060b faf6 feec 0713 f0f2 14ef
00000080: fe07 0908 11ff 0c00 0904 2d04 fcf3 fcff
00000090: 2507 10ff 0312 2001 fe05 0701 1202 f302
000000a0: 0df9 0afd ec01 1613 0efd 02f2 fc0f 0f06
000000b0: f104 090f 1ae0 f806 f0f3 fbe9 f70d 0803
000000c0: 09f1 11fe 05f1 faec f20a fb0d 00e9 fc10
000000d0: 05fd edae 05ef f90a cbf5 f302 04fd c7ef
000000e0: fe09 f503 d70f 06ef faf0 ebf0 edf6 09ff
000000f0: e6fe fc0b ef12 deee f8f7 150d eb0b 0af9
0.5392459 0.14379892 -0.13181567 0.09586594 -0.09586594 -0.07189946 0.4553632 0.2516481
0.14379892 -0.1677654 -0.23966485 0.14379892 0.13181567 0.1677654 -0.17974864 0.20371513
0.19173189 -0.011983243 0.10784919 0.059916213 -0.20371513 0.21569838 -0.20371513 0.15578216
0.28759784 0.0 -0.19173189 -0.14379892 0.19173189 0.0 0.059916213 0.11983243
-0.07189946 0.19173189 0.04793297 0.04793297 -0.15578216 0.23966485 0.15578216 -0.09586594
0.17974864 -0.13181567 -0.13181567 -0.13181567 -0.0838827 0.059916213 -0.23966485 -0.03594973
-0.38346377 0.23966485 0.17974864 0.23966485 -0.04793297 0.15578216 -0.62312865 0.011983243
-0.13181567 -0.20371513 0.023966486 -0.19173189 -0.9826259 -0.0838827 -0.03594973 0.13181567
0.14379892 0.059916213 -1.282207 -0.13181567 -0.023966486 0.023966486 0.04793297 -0.09586594
-0.59916216 0.15578216 0.03594973 0.011983243 -0.11983243 -0.20371513 -0.32354754 0.37148052
-0.13181567 0.059916213 0.17974864 0.15578216 -0.57519567 0.13181567 0.07189946 -0.1677654
0.10784919 0.07189946 -0.29958108 -0.04793297 0.21569838 -0.15578216 -0.20371513 0.23966485
-0.23966485 0.03594973 -0.1677654 -0.14379892 0.1677654 -0.17974864 -0.39544702 -0.04793297
0.13181567 0.07189946 -0.011983243 0.07189946 -0.46734646 0.023966486 0.0838827 0.0838827
-0.17974864 0.011983243 -0.07189946 0.11983243 0.07189946 0.13181567 -0.07189946 -0.11983243
-0.023966486 -0.23966485 0.0838827 0.2276816 -0.19173189 -0.1677654 0.23966485 -0.20371513
-0.023966486 0.0838827 0.10784919 0.09586594 0.20371513 -0.011983243 0.14379892 0.0
0.10784919 0.04793297 0.5392459 0.04793297 -0.04793297 -0.15578216 -0.04793297 -0.011983243
0.44338 0.0838827 0.19173189 -0.011983243 0.03594973 0.21569838 0.38346377 0.011983243
-0.023966486 0.059916213 0.0838827 0.011983243 0.21569838 0.023966486 -0.15578216 0.023966486
0.15578216 -0.0838827 0.11983243 -0.03594973 -0.23966485 0.011983243 0.26363134 0.2276816
0.1677654 -0.03594973 0.023966486 -0.1677654 -0.04793297 0.17974864 0.17974864 0.07189946
-0.17974864 0.04793297 0.10784919 0.17974864 0.31156433 -0.38346377 -0.09586594 0.07189946
-0.19173189 -0.15578216 -0.059916213 -0.2756146 -0.10784919 0.15578216 0.09586594 0.03594973
0.10784919 -0.17974864 0.20371513 -0.023966486 0.059916213 -0.17974864 -0.07189946 -0.23966485
-0.1677654 0.11983243 -0.059916213 0.15578216 0.0 -0.2756146 -0.04793297 0.19173189
0.059916213 -0.03594973 -0.2276816 -0.9826259 0.059916213 -0.20371513 -0.0838827 0.11983243
-0.63511187 -0.13181567 -0.15578216 0.023966486 0.04793297 -0.03594973 -0.68304485 -0.20371513
-0.023966486 0.10784919 -0.13181567 0.03594973 -0.49131295 0.17974864 0.07189946 -0.20371513
-0.07189946 -0.19173189 -0.2516481 -0.19173189 -0.2276816 -0.11983243 0.10784919 -0.011983243
-0.31156433 -0.023966486 -0.04793297 0.13181567 -0.20371513 0.21569838 -0.40743026 -0.21569838
-0.09586594 -0.10784919 0.2516481 0.15578216 -0.2516481 0.13181567 0.11983243 -0.0838827

sequential/dense_1/MatMul i1 [32, 32] scale=0.017346319 zero_point=0
00000000: fc18 08f8 f108 fe05 0a03 f0fc fffd f3e7
00000010: dddb eef2 f4f1 feea fce6 0208 0c17 00e4
00000020: d402 f60c 07fc fdfc 0603 1108 0bfc fbed
00000030: 0918 07f0 f9fc fd08 fa09 fd03 03f8 0c15
00000040: 0204 dd01 f216 0df9 f70f 1009 f8fa e8ee
00000050: f80e f409 f70a f8fb fef8 f6fc 02ee f0dd
00000060: be0b ee0e 13f9 f3f7 f101 fa0e e2ed cfdb
00000070: feff 030d f6f8 1114 f408 fc01 010e fa0c
00000080: b209 090b f5ff f8f4 0df9 fc0c 080d e3de
00000090: eaf3 f7f7 dde3 0400 f101 fb12 ff0f 01ed
000000a0: d4f1 f0f2 0df9 ff08 f8e2 ecf8 05ff fbe8
000000b0: f0f1 f507 170f f4eb 050a f6fc eae9 0300
000000c0: 900a 000a f305 feff d102 f001 fefd 078b
000000d0: 050a 02fe fdf2 eaff 01e5 fdfc ff09 03fd
000000e0: 04fc f9ea 01f8 f0eb 02f2 fa03 f7ff fefb
000000f0: 05fb fdf4 f1f2 02f0 09ef f806 feea f60b
-0.069385275 0.41631165 0.13877055 -0.13877055 -0.26019478 0.13877055 -0.034692638 0.0867316
0.1734632 0.052038956 -0.2775411 -0.069385275 -0.017346319 -0.052038956 -0.22550215 -0.43365797
-0.60712117 -0.6418138 -0.31223375 -0.24284846 -0.20815583 -0.26019478 -0.034692638 -0.381619
-0.069385275 -0.4510043 0.034692638 0.13877055 0.20815583 0.39896533 0.0 -0.4856969
-0.763238 0.034692638 -0.1734632 0.20815583 0.12142423 -0.069385275 -0.052038956 -0.069385275
0.10407791 0.052038956 0.29488742 0.13877055 0.1908095 -0.069385275 -0.0867316 -0.32958007
0.15611687 0.41631165 0.12142423 -0.2775411 -0.12142423 -0.069385275 -0.052038956 0.13877055
-0.10407791 0.15611687 -0.052038956 0.052038956 0.052038956 -0.13877055 0.20815583 0.36427268
0.034692638 0.069385275 -0.60712117 0.017346319 -0.24284846 0.381619 0.22550215 -0.12142423
-0.15611687 0.26019478 0.2775411 0.15611687 -0.13877055 -0.10407791 -0.41631165 -0.31223375
-0.13877055 0.24284846 -0.20815583 0.15611687 -0.15611687 0.1734632 -0.13877055 -0.0867316
-0.034692638 -0.13877055 -0.1734632 -0.069385275 0.034692638 -0.31223375 -0.2775411 -0.60712117
-1.144857 0.1908095 -0.31223375 0.24284846 0.32958007 -0.12142423 -0.22550215 -0.15611687
-0.26019478 0.017346319 -0.10407791 0.24284846 -0.52038956 -0.32958007 -0.8499696 -0.6418138
-0.034692638 -0.017346319 0.052038956 0.22550215 -0.1734632 -0.13877055 0.29488742 0.3469264
-0.20815583 0.13877055 -0.069385275 0.017346319 0.017346319 0.24284846 -0.10407791 0.20815583
-1.3530129 0.15611687 0.15611687 0.1908095 -0.1908095 -0.017346319 -0.13877055 -0.20815583
0.22550215 -0.12142423 -0.069385275 0.20815583 0.13877055 0.22550215 -0.50304323 -0.58977485
-0.381619 -0.22550215 -0.15611687 -0.15611687 -0.60712117 -0.50304323 0.069385275 0.0
-0.26019478 0.017346319 -0.0867316 0.31223375 -0.017346319 0.26019478 0.017346319 -0.32958007
-0.763238 -0.26019478 -0.2775411 -0.24284846 0.22550215 -0.12142423 -0.017346319 0.13877055
-0.13877055 -0.52038956 -0.3469264 -0.13877055 0.0867316 -0.017346319 -0.0867316 -0.41631165
-0.2775411 -0.26019478 -0.1908095 0.12142423 0.39896533 0.26019478 -0.20815583 -0.36427268
0.0867316 0.1734632 -0.1734632 -0.069385275 -0.381619 -0.39896533 0.052038956 0.0
-1.9427876 0.1734632 0.0 0.1734632 -0.22550215 0.0867316 -0.034692638 -0.017346319
-0.815277 0.034692638 -0.2775411 0.017346319 -0.034692638 -0.052038956 0.12142423 -2.0295193
0.0867316 0.1734632 0.034692638 -0.034692638 -0.052038956 -0.24284846 -0.381619 -0.017346319
0.017346319 -0.46835062 -0.052038956 -0.069385275 -0.017346319 0.15611687 0.052038956 -0.052038956
0.069385275 -0.069385275 -0.12142423 -0.381619 0.017346319 -0.13877055 -0.2775411 -0.36427268
0.034692638 -0.24284846 -0.10407791 0.052038956 -0.15611687 -0.017346319 -0.034692638 -0.0867316
0.0867316 -0.0867316 -0.052038956 -0.20815583 -0.26019478 -0.24284846 0.034692638 -0.2775411
0.15611687 -0.29488742 -0.13877055 0.10407791 -0.034692638 -0.381619 -0.1734632 0.1908095

sequential/dense_2/MatMul i1 [1, 32] scale=0.007337098 zero_point=0
00000000: d805 f8ee dfc4 7ffd 212a 9e15 2205 f0ed
00000010: 1cfb 351f d6f5 1be7 2124 f765 d9ea 2514
-0.2934839 0.03668549 -0.058696784 -0.13206777 -0.24212423 -0.44022587 0.93181145 -0.022011295
0.24212423 0.30815813 -0.7190356 0.15407906 0.24946134 0.03668549 -0.11739357 -0.13940486
0.20543875 -0.03668549 0.3888662 0.22745004 -0.30815813 -0.08070808 0.19810164 -0.18342745
0.24212423 0.26413554 -0.066033885 0.7410469 -0.28614682 -0.16141616 0.27147263 0.14674196
