dnn_new.tflite (tflite, 89296 bytes, 5 tensors)

sequential/dense/BiasAdd/ReadVariableOp/resource f4 [32]
00000000: 5adb 2ec0 adfa 3fbe 98d2 163e 295f 94bf
00000010: 6ade 14bf 3664 05c0 705b 51bf 1cd7 113e
00000020: 5a54 d3be f4d9 9abe 04c4 b3bf d98d 43bf
00000030: 121a f4bf 556c 8f3d c998 fabf 2d0e 20bf
00000040: b32d 89bf 438e 97bf adc0 cfbf 12e9 0cbf
00000050: d17c debf e176 32bf ec0f 48c0 bb56 11c0
00000060: 16ad efbe 7f90 afbd 9258 12bd b849 63bf
00000070: 1a9b eebe 4091 4bbf b922 1fc0 090d 80bf
-2.7321382 -0.18747969 0.14728773 -1.159154 -0.58151877 -2.0842414 -0.8178015 0.14242214
-0.41275293 -0.3024441 -1.4044194 -0.7638832 -1.9070456 0.070030846 -1.9577876 -0.6252163
-1.0717071 -1.184029 -1.6230675 -0.5504314 -1.7381841 -0.69712645 -3.1259718 -2.2709186
-0.46811742 -0.08572482 -0.035729 -0.8878436 -0.46602708 -0.7951851 -2.4864943 -1.0003978

sequential/dense_1/BiasAdd/ReadVariableOp/resource f4 [32]
00000000: 9366 d6be aa88 873e 3ac1 35be a359 06be
00000010: 6e97 cebd 17a7 233f b32f d8be 7a26 b4be
00000020: 3099 2a3f 40fe 43be 94ce 4dbd 219b 00bf
00000030: 3834 8bbe 0a7a 2cbe 23b3 843c 7a48 febe
00000040: 3d13 63be 0024 98be d0e8 173f 5070 88be
00000050: eaac 433f 7e90 aebf 65e0 073f ff64 f7bd
00000060: 64bf 303d f6cb 77be ca6d d8be 95d4 a63d
00000070: 11e6 3dbe 377f 6abf cb54 26be 4248 a1be
-0.41875133 0.26471454 -0.17749491 -0.13120131 -0.10087477 0.63926834 -0.42223892 -0.35185605
0.66639996 -0.19139957 -0.050245836 -0.5023671 -0.27188277 -0.16843429 0.0161987 -0.4966467
-0.22175308 -0.29714966 0.5933962 -0.26648188 0.7643572 -1.3637846 0.53076774 -0.1207981
0.043151274 -0.24198899 -0.42271262 0.081460156 -0.18544795 -0.91600364 -0.16243283 -0.3150044

sequential/dense/MatMul f4 [32, 648]
00000000: ac61 aebd 8460 113d 3a88 8abd b55c c93c
00000010: 4dab 583c 937c 19bd 56aa 86bd 4a26 8f3c
00000020: c152 e0bd c3db 38bd b2c8 943c b66a 9cbd
00000030: 7304 80bc 4ed4 0ebd b1be 04bd 1355 22bd
00000040: 62fc a53d 461b e4bd 8fd0 27be 6594 ffbc
00000050: 7192 303d d28b 86bd 06c6 babd f9f3 cbbd
00000060: 778c 56bd f90f 40bb a670 2a3d ef41 8ebd
00000070: c03d 7d3d b17a 803d 29e1 15be 06c9 c7bd
00000080: 53a5 e9bc c6ce a13d 2898 c93a 6442 fd3c
00000090: 0bd2 e7bd 629e 76bd 95d4 6e3d 0f11 3abd
000000a0: 93e7 b8bd 2205 a7bd 1fce 033d b2ed 143c
000000b0: 311e 403d d24a 9cbc a56d 443d 13dd 3fbd
000000c0: e545 83bd 4879 f53c 0da0 77bc a36c 58bd
000000d0: 53db abbd d9d5 3abd dc54 a4bc 67ee 8cbb
000000e0: 4a9b 4b3d a337 c53d 7b1f 81bd 7d11 633d
000000f0: 9d7a 2a3d 4674 a6bd 0d71 c9bc 175c 103d
00000100: 1e5a fc3d 6819 d23d 3a4c f63c 7996 4bbb
00000110: 4cc1 aebd d9a5 64bd c276 af3d 10e9 5f3d
00000120: bb56 673d b65f f03c da9c 02bb 6edd 093e
00000130: 4a8d d8bc c76a b03d 9899 603c bd65 9abd
00000140: 5623 0dbd db99 a8bd 1ffd 3b3e a2d2 613d
00000150: 6366 b13d 4030 9d3c 0eb6 b93d cbfd a13c
00000160: 4d06 4dbd a14b e93c fb98 9d3c af5d 323e
00000170: 211e 12bd eec2 55bc bcc3 623c cafd 853d
00000180: af69 f33c 4b6a a03d 08bb d93a da98 80bc
00000190: 1382 d23d 67ff 333d 73ff 76bd d413 43bc
000001a0: db75 d7bc 2920 e0bd 6cff 943d 3cff 92bd
000001b0: 946a 2bbd 31d1 153d d6b6 963c e4c2 c4bd
000001c0: d8da 14be 9663 653d 2e0a bb3d 9244 413d
000001d0: b075 0bbd 67e0 47bc 3c53 823d 54d8 983c
000001e0: dadc 623d 93b6 a3ba 0d66 96bd 0450 b13d
000001f0: 0b5a adbb ffa0 35bd 7b07 e1bc cd6c e93b
00000200: cc8a c53d c6f5 42bd c04e bdbd afd4 00bd
00000210: 6106 80bd 825d f63c f2a7 87bd 88eb f93d
00000220: 6da0 053d b227 163e aa30 063e a97b b9bd
00000230: 22f9 7c3d f056 9bbd 60fa 283d a0a6 48bc
00000240: 4345 6f3b 723a 943d 885e 173e 9b5f db3d
00000250: e6b3 5d3d 0ff1 a0bc 0d8a 17bc 44a3 60bd
00000260: b265 d1bd 5c19 b9bc c592 193d eefa 8d3d
00000270: a427 713d 46f5 103d 1d63 e2bd 5bf0 cbbc
00000280: ebf4 45bd ce2d 30bd 06c4 c73d 7094 07bd
00000290: 9076 32bc 3b6f bc3d 4439 5ebd 905a abbd
000002a0: 7a08 333c c48d d3bb 44c0 adbd ac4c c53d
000002b0: 3e28 ae3d b0a2 13bd 5a72 413e 764e 8cbd
000002c0: 07e2 2c3d 2328 14bd 82db b2bd 15ad 0cbc
000002d0: 802d ef3d 69eb 8ebd 1ec5 113d 8ef1 5a3e
000002e0: f82f b03d 51af bf3d 5f60 2b3d de02 923d
000002f0: fb0d 7c3d aff2 953d efdd dfbd 0472 85bd
00000300: 00dd 2d3e c9ff fc3b bc35 d9bc 059a 6f3d
00000310: 87db a0bd 31b4 9bbd 0b21 16bb 19af c3bd
00000320: 75d3 59bd 56fd 163e d283 073e d9b3 56bb
00000330: bb77 933d c58f 8bbd 16ea 9fbd a716 973c
00000340: fcfb 57bd 5bdf 393d 9b33 f73d 3709 13bd
00000350: 3ebd 183d b625 0bbd 27c8 7bbd 96e3 4e3d
00000360: 697a 873d db58 623d fa43 cfbd b510 473e
00000370: 70f6 42bd ea4a 88bd d6db 93bd 72bd b9bd
00000380: 5fac 063d b2d1 1bbd 16f8 893d 5081 d6bd
00000390: 9841 debb b683 15bd 691d 0f3d de39 d9bd
000003a0: ac6b 0cbd 687d b7bd 2980 9b3a 30a1 183e
000003b0: 6535 80bc f316 b53d ff30 ce3d ff58 563d
000003c0: 7997 4bbd 43fa 1a3d 2d84 47bd d757 323d
000003d0: 828e 7d3d 4462 59b8 39cc ad3d 5445 acba
000003e0: 1d3a 91bc 9f09 46bd 842b 9c3d c151 a0bd
000003f0: 3be7 253d 76fa 1fbe 3e88 06bd e572 833c
-0.08514723 0.035492435 -0.067642644 0.024580339 0.013224435 -0.03747232 -0.06575458 0.017474312
-0.10953284 -0.045131456 0.018162105 -0.07637541 -0.015627122 -0.03487044 -0.03240842 -0.039631914
0.08104779 -0.111380145 -0.16388153 -0.03119869 0.043108407 -0.06569637 -0.09119801 -0.099586435
-0.05238005 -0.0029306395 0.041611336 -0.069461696 0.061826468 0.062734015 -0.14636673 -0.09755139
-0.028521216 0.07900767 0.0015380429 0.030915447 -0.113193594 -0.06020964 0.058308203 -0.045426425
-0.09028544 -0.08155276 0.032178994 0.009089874 0.046903793 -0.019078646 0.047956128 -0.046841692
-0.06409816 0.029965058 -0.015113843 -0.05283798 -0.08391442 -0.045614097 -0.020059995 -0.0043008807
0.049708642 0.096297525 -0.063048325 0.0554366 0.04162084 -0.08127646 -0.02459004 0.035244074
0.12321876 0.10258752 0.030065645 -0.003106503 -0.08532962 -0.055822227 0.08567573 0.054665625
0.056479197 0.029342514 -0.0019929917 0.13463375 -0.02643456 0.08614116 0.013708495 -0.07538936
-0.034457527 -0.082324706 0.18358277 0.055132516 0.08662107 0.019188046 0.09067927 0.019774338
-0.050054837 0.028478445 0.019237986 0.1741855 -0.035673264 -0.013046963 0.013840612 0.06542547
0.02971348 0.07832774 0.0016611526 -0.015697885 0.10278716 0.043944743 -0.06030221 -0.011906583
-0.026301315 -0.10943634 0.0727528 -0.07177588 -0.041849688 0.036576454 0.01839773 -0.09607485
-0.14536607 0.056003176 0.09132801 0.047184534 -0.034047782 -0.012199498 0.06363532 0.01865784
0.0553864 -0.0012490324 -0.073436834 0.0865784 -0.005290275 -0.04434299 -0.027469387 0.0071235658
0.09645614 -0.04759767 -0.09243536 -0.03145283 -0.06251217 0.030073885 -0.0662383 0.12203127
0.032623697 0.1466358 0.13104501 -0.090567894 0.06176103 -0.075849414 0.0412544 -0.012246758
0.003650979 0.0723771 0.14782155 0.10711595 0.054126643 -0.019646196 -0.009249222 -0.054843202
-0.10224475 -0.0225951 0.037493486 0.06932627 0.058875695 0.03539016 -0.110540606 -0.024894884
-0.048329275 -0.043012433 0.097541854 -0.033100545 -0.010892525 0.09200903 -0.05425383 -0.08366883
0.010927314 -0.0064561088 -0.084839374 0.096337646 0.08503769 -0.036043823 0.18891278 -0.06850903
0.042207744 -0.03617109 -0.08733274 -0.008586188 0.116786 -0.06978495 0.035588376 0.21381208
0.08602899 0.09359611 0.041839954 0.07129453 0.06153677 0.07321679 -0.10931002 -0.065158874
0.16978836 0.0077209217 -0.02651488 0.058496494 -0.078543715 -0.07602728 -0.0022907879 -0.095548816
-0.053180177 0.14745077 0.13233879 -0.0032761006 0.07200571 -0.06814531 -0.0780832 0.018443419
-0.052730545 0.045379024 0.1207039 -0.03589746 0.03728985 -0.03397151 -0.061470177 0.05051001
0.06615145 0.05526052 -0.101203874 0.19439967 -0.047598302 -0.06654914 -0.07219665 -0.09069337
0.03287923 -0.038041778 0.06736772 -0.10473883 -0.0067827217 -0.036502562 0.034940157 -0.106067404
-0.03428237 -0.08959466 0.0011863756 0.14905238 -0.01565046 0.08842268 0.10067939 0.052330967
-0.049705002 0.037836324 -0.048710037 0.0435408 0.061903484 -5.182835e-05 0.08486218 -0.001314322
-0.017727906 -0.04834902 0.076254874 -0.07828093 0.04050372 -0.15622887 -0.032844774 0.016045997

sequential/dense_1/MatMul f4 [32, 32]
00000000: 88e0 1d3d 90fe d9bd 4611 283d d84a 58bd
00000010: a420 3bbd 2be7 0bbd dab3 31be af6b 373e
00000020: 9ad5 72be 728c d23d d59c 0dbe 8d22 c6be
00000030: 4049 3fbc 047a 513c 2a1f 413d ef7b a83e
00000040: fd7f 913e 67d7 67be 548e 67bd f0d2 7ebe
00000050: 4421 ed3d 6a0f b7bd 5b3f 103d 713c ca3d
00000060: 1486 67be 6c46 d93c 84c2 44be bec7 e23d
00000070: 9958 46bf 3378 343b 6677 0ebd b247 643d
00000080: 433f c83c 8756 9cbe 891a d3bd 1b4e a73d
00000090: 3b54 55be c69e 08be 5a54 993d 9c83 993e
000000a0: ef41 c0bd 9865 22be cabb 33bd bcfb 043e
000000b0: 531f 75bd e9ca f83b 8634 1fbe 7468 89be
000000c0: 5096 6bbe 9b4e 41be 83b9 cabd 7fd9 7dbe
000000d0: cb31 23be 6f0c e4bd 4b54 10bd 8d1b bdbc
000000e0: 0c39 37be 8d6f a3be 6bca 22bf 5f85 21be
000000f0: e863 553e cddf a53d 66a2 e23d 2a5c 22be
00000100: 3aac 463d b9ab bdbe ed0a 4a3d 0c6c aebe
00000110: c6bd ef3d c40e 80bc 43b1 db3c f39d c3be
00000120: d01a 1abe 7e0a 96bd cee5 013c 99aa 85be
00000130: 831e bebe 18bf 2fbe 00cc 5ebe 6302 de3d
00000140: 6382 b5bd 8109 c5bd 9c3a 6ebe 6b25 90be
00000150: 5c00 2dbe f8ef 9fbe 6b27 15bc 5049 cfbe
00000160: af6e 87be 2e60 b7be 5015 a73c 48bb 0b3e
00000170: 55ea abbe d28d 333e 6ad2 9d3d b0d6 37be
00000180: cf92 d1bb 98ff 8fbe 2e7b bbbd 5ee4 14be
00000190: f92a e0be 9752 8ebe 8ca1 e3bd c75d 76be
000001a0: 1d30 2ebe e762 b6bd f1c7 0dbb 3c77 90be
000001b0: ad9c 83be 68eb 8ebe c22a 39bd 7bad 01be
000001c0: 7c18 c0bd e7ce fc3c 9e75 71be 5d2d 333e
000001d0: c5e5 b8bd 5e67 fbbd ea6e 50be 926f 4a3e
000001e0: f3ba 36be 6c81 91bc 9f65 07ba 5f5d eb3d
000001f0: 7a77 f6bc 8e4e 2ebe 57e0 92be 8b2f 1a3e
00000200: 51e7 06be b84a c33e a562 c1be a1d1 9d3d
00000210: 2ffb af3d 4a35 67be 7cf3 00be 306f 293d
00000220: 8860 5fbe 16b5 4abe db17 dc3d ebc8 03bf
00000230: b1fa 73be 2bda acbe 1578 4dbe 2482 35bf
00000240: f562 643d 5af1 1ebe ab55 35be 99e8 90be
00000250: cd61 b73d 6da6 b43d e082 343d f416 94be
00000260: 57ed aebc 9b96 1bbf 797c 9ebe 57ca 91be
00000270: 5799 293e ff8c dbbc e81b 0abd a324 bcbe
00000280: 08ba 403c 932f 8b3d c576 a9bd 72f6 fcbd
00000290: a6b5 3dbd afa0 993d 21ab e83d 5354 fabd
000002a0: 0633 07be 5805 32be 5d6d 933d c992 19bd
000002b0: f3a3 58bb 8019 dfbf f382 7f3c b5c8 633e
000002c0: 14a3 0f3d 3080 86bd b2f6 89bd 1190 143d
000002d0: ebc2 bdbc ba6e 4b3e ab3c e4bd a6e3 48bd
000002e0: f9f3 6c3e 5cb7 953c 6f9e a23d 1ead f4bd
000002f0: 2ade 44bd 1315 8abd 5016 23bd 8e4f 973d
00000300: 35c6 bfbc 2aa7 22be d905 2b3e 9a5a bb3e
00000310: abe4 5cbe 6d4d 81be 57ce 06bf ab52 8abe
00000320: 3264 0cbe 3317 623e 8ee3 85be d7be 40bf
00000330: caea 8a3e e7dc 25bc 10d0 423c 4ab2 3fbe
00000340: 03e3 c23d 4a17 7ebc 652b ecbc 9f0b 8e3c
00000350: fc41 97be 1433 6dbd b8a6 5dbd 2039 c73d
00000360: 31f2 08bf cfdf 9bbe 8b3a 97bc eac1 c8be
00000370: 17ca b0bd fc38 553e 80e2 61be 913d 83be
00000380: a22b 70bc c5da e83d 5914 b1be f02f aa3b
00000390: 8b40 a83d f704 6fbc 5374 56be ff09 e63d
000003a0: b512 743d 5b15 e53d 73af 843c 2fb6 0abf
000003b0: 98a5 2ebd 0a98 1cc0 3c7d a5bc 38af 0b3e
000003c0: 92f9 243e 3363 d23d 337a 55bd 5e14 d53d
000003d0: ac66 00bb 7122 803c 8806 bebc 3684 d13c
000003e0: 1994 e6bd 3d8c f7be 8ddb 1a3e 314c 92bd
000003f0: b55e 113d 1645 ee3c 4b65 6ebd fd02 1cbd
0.038544208 -0.10644257 0.0410321 -0.05280575 -0.045685425 -0.034156006 -0.17353764 0.17912172
-0.23714295 0.10280694 -0.13829358 -0.38698235 -0.011675179 0.012785438 0.04714886 0.32907054
0.2841796 -0.22640763 -0.05653222 -0.24885154 0.115786105 -0.08938487 0.03521667 0.098748095
-0.2260974 0.026522838 -0.19214827 0.11073254 -0.7747894 0.0027537465 -0.034781836 0.055732436
0.024444228 -0.30534765 -0.103077956 0.08169194 -0.20832913 -0.13341817 0.07486792 0.29983222
-0.09387576 -0.15859067 -0.04388026 0.12986654 -0.059844326 0.007592548 -0.1554738 -0.26837504
-0.23006558 -0.18877642 -0.09898665 -0.2479 -0.15936963 -0.11135184 -0.035236638 -0.023084426
-0.17892855 -0.31921044 -0.63590115 -0.15773533 0.20838892 0.08099327 0.11066131 -0.1585547
0.04850409 -0.37045076 0.049326826 -0.34066808 0.11706118 -0.01563204 0.026817923 -0.38206443
-0.1504929 -0.0732622 0.007928325 -0.26106718 -0.37132654 -0.1716274 -0.21757507 0.10840299
-0.0886276 -0.09620953 -0.23264545 -0.28153548 -0.16894668 -0.3123777 -0.009103636 -0.4048562
-0.26451632 -0.35815567 0.020395905 0.13645661 -0.3357722 0.17534569 0.07706149 -0.1795299
-0.006395675 -0.2812469 -0.09154354 -0.1454024 -0.43782786 -0.27797386 -0.11114797 -0.2405921
-0.17010541 -0.08905583 -0.0021634067 -0.2821597 -0.25705472 -0.27913976 -0.045206793 -0.12663834
-0.0937967 0.030860377 -0.23580024 0.17497773 -0.090282 -0.12275575 -0.2035481 0.19769123
-0.17844753 -0.017761908 -0.0005164984 0.114924185 -0.030086268 -0.17022154 -0.28686783 0.15057199
-0.13174178 0.38142943 -0.37770572 0.07705999 0.08592831 -0.22578922 -0.12592882 0.041365802
-0.21814167 -0.19795641 0.107467376 -0.5147845 -0.238261 -0.337602 -0.20065339 -0.70901704
0.055758435 -0.15521756 -0.17708461 -0.28302458 0.08954201 0.08820806 0.044070125 -0.28923762
-0.021353407 -0.6077668 -0.3095434 -0.28474686 0.16562401 -0.02680063 -0.03371802 -0.36746702
0.011763103 0.067961834 -0.082746066 -0.12351693 -0.04631581 0.07501351 0.11360765 -0.12223115
-0.13203058 -0.17384851 0.07198594 -0.0374935 -0.0033056706 -1.7429657 0.015595186 0.22244532
0.035067633 -0.065674186 -0.067365065 0.036270205 -0.023164233 0.19866458 -0.11144384 -0.049045227
0.23139943 0.01827591 0.07940375 -0.11947082 -0.048063435 -0.06742301 -0.0398162 0.07388221
-0.023409942 -0.1588408 0.1670145 0.3659256 -0.21571605 -0.25254384 -0.526586 -0.27016196
-0.13710096 0.22079162 -0.26150173 -0.752912 0.27132255 -0.010123468 0.011890426 -0.18720356
0.09515955 -0.015508482 -0.028829286 0.017339526 -0.2954253 -0.05791004 -0.054114074 0.097276926
-0.53494555 -0.3044419 -0.018460533 -0.39210445 -0.086322956 0.20822519 -0.22059059 -0.2563291
-0.01465884 0.11369852 -0.34585837 0.005193703 0.082154356 -0.014588586 -0.20942812 0.11232375
0.059588153 0.11185714 0.016196942 -0.5418424 -0.04263839 -2.4467797 -0.020201318 0.1364106
0.16110829 0.10272827 -0.05211849 0.10404275 -0.0019592447 0.015641423 -0.023196474 0.025575738
-0.11258716 -0.4834918 0.15122814 -0.071434386 0.03549071 0.029085677 -0.05820207 -0.038088787

sequential/dense_2/MatMul f4 [1, 32]
00000000: 0554 cc3c 6f66 0ebd c2eb 713c a8b8 9d3d
00000010: 6063 a93c d4b5 c9bc fae6 98bd cf8c f9bd
00000020: adc6 36be bca8 ba3c c077 543b b8e0 293d
00000030: 2003 e43c 046e a2bc b967 7bbd b625 f7bc
00000040: 6ccb acbc c8aa b93c a144 a43d baae bbbb
00000050: 510d 46bd 89e8 ae3d 6c79 083d 2791 0b3e
00000060: 08a6 09bd b463 c43c 2f22 06bd 5efc 883d
00000070: f521 c8bc d3f1 883d fde7 b5bd d0ff 593c
0.024942407 -0.034765657 0.014765682 0.07701236 0.020677269 -0.024622835 -0.0746593 -0.1218506
-0.17849226 0.022785537 0.003242001 0.041474074 0.027833521 -0.01982785 -0.061378215 -0.03016935
-0.021093093 0.022664443 0.080209024 -0.005727616 -0.048352543 0.08540446 0.033318922 0.1362959
-0.033605605 0.023973323 -0.032747444 0.0668876 -0.024430254 0.06686749 -0.08882139 0.013305619
