gru.tflite (tflite, 20768 bytes, 8 tensors)

TensorArrayV2_1 f4 [72, 1, 16]
00000000: 0000 0000 0000 0000 0000 0000 0000 0000
00000010: 0000 0000 0000 0000 0000 0000 0000 0000
00000020: 0000 0000 0000 0000 0000 0000 0000 0000
00000030: 0000 0000 0000 0000 0000 0000 0000 0000
00000040: 0000 0000 0000 0000 0000 0000 0000 0000
00000050: 0000 0000 0000 0000 0000 0000 0000 0000
00000060: 0000 0000 0000 0000 0000 0000 0000 0000
00000070: 0000 0000 0000 0000 0000 0000 0000 0000
00000080: 0000 0000 0000 0000 0000 0000 0000 0000
00000090: 0000 0000 0000 0000 0000 0000 0000 0000
000000a0: 0000 0000 0000 0000 0000 0000 0000 0000
000000b0: 0000 0000 0000 0000 0000 0000 0000 0000
000000c0: 0000 0000 0000 0000 0000 0000 0000 0000
000000d0: 0000 0000 0000 0000 0000 0000 0000 0000
000000e0: 0000 0000 0000 0000 0000 0000 0000 0000
000000f0: 0000 0000 0000 0000 0000 0000 0000 0000
00000100: 0000 0000 0000 0000 0000 0000 0000 0000
00000110: 0000 0000 0000 0000 0000 0000 0000 0000
00000120: 0000 0000 0000 0000 0000 0000 0000 0000
00000130: 0000 0000 0000 0000 0000 0000 0000 0000
00000140: 0000 0000 0000 0000 0000 0000 0000 0000
00000150: 0000 0000 0000 0000 0000 0000 0000 0000
00000160: 0000 0000 0000 0000 0000 0000 0000 0000
00000170: 0000 0000 0000 0000 0000 0000 0000 0000
00000180: 0000 0000 0000 0000 0000 0000 0000 0000
00000190: 0000 0000 0000 0000 0000 0000 0000 0000
000001a0: 0000 0000 0000 0000 0000 0000 0000 0000
000001b0: 0000 0000 0000 0000 0000 0000 0000 0000
000001c0: 0000 0000 0000 0000 0000 0000 0000 0000
000001d0: 0000 0000 0000 0000 0000 0000 0000 0000
000001e0: 0000 0000 0000 0000 0000 0000 0000 0000
000001f0: 0000 0000 0000 0000 0000 0000 0000 0000
00000200: 0000 0000 0000 0000 0000 0000 0000 0000
00000210: 0000 0000 0000 0000 0000 0000 0000 0000
00000220: 0000 0000 0000 0000 0000 0000 0000 0000
00000230: 0000 0000 0000 0000 0000 0000 0000 0000
00000240: 0000 0000 0000 0000 0000 0000 0000 0000
00000250: 0000 0000 0000 0000 0000 0000 0000 0000
00000260: 0000 0000 0000 0000 0000 0000 0000 0000
00000270: 0000 0000 0000 0000 0000 0000 0000 0000
00000280: 0000 0000 0000 0000 0000 0000 0000 0000
00000290: 0000 0000 0000 0000 0000 0000 0000 0000
000002a0: 0000 0000 0000 0000 0000 0000 0000 0000
000002b0: 0000 0000 0000 0000 0000 0000 0000 0000
000002c0: 0000 0000 0000 0000 0000 0000 0000 0000
000002d0: 0000 0000 0000 0000 0000 0000 0000 0000
000002e0: 0000 0000 0000 0000 0000 0000 0000 0000
000002f0: 0000 0000 0000 0000 0000 0000 0000 0000
00000300: 0000 0000 0000 0000 0000 0000 0000 0000
00000310: 0000 0000 0000 0000 0000 0000 0000 0000
00000320: 0000 0000 0000 0000 0000 0000 0000 0000
00000330: 0000 0000 0000 0000 0000 0000 0000 0000
00000340: 0000 0000 0000 0000 0000 0000 0000 0000
00000350: 0000 0000 0000 0000 0000 0000 0000 0000
00000360: 0000 0000 0000 0000 0000 0000 0000 0000
00000370: 0000 0000 0000 0000 0000 0000 0000 0000
00000380: 0000 0000 0000 0000 0000 0000 0000 0000
00000390: 0000 0000 0000 0000 0000 0000 0000 0000
000003a0: 0000 0000 0000 0000 0000 0000 0000 0000
000003b0: 0000 0000 0000 0000 0000 0000 0000 0000
000003c0: 0000 0000 0000 0000 0000 0000 0000 0000
000003d0: 0000 0000 0000 0000 0000 0000 0000 0000
000003e0: 0000 0000 0000 0000 0000 0000 0000 0000
000003f0: 0000 0000 0000 0000 0000 0000 0000 0000
0.0 0.0 0.0 0.0 0.0 0.0 0.0 0.0
0.0 0.0 0.0 0.0 0.0 0.0 0.0 0.0
0.0 0.0 0.0 0.0 0.0 0.0 0.0 0.0
0.0 0.0 0.0 0.0 0.0 0.0 0.0 0.0
0.0 0.0 0.0 0.0 0.0 0.0 0.0 0.0
0.0 0.0 0.0 0.0 0.0 0.0 0.0 0.0
0.0 0.0 0.0 0.0 0.0 0.0 0.0 0.0
0.0 0.0 0.0 0.0 0.0 0.0 0.0 0.0
0.0 0.0 0.0 0.0 0.0 0.0 0.0 0.0
0.0 0.0 0.0 0.0 0.0 0.0 0.0 0.0
0.0 0.0 0.0 0.0 0.0 0.0 0.0 0.0
0.0 0.0 0.0 0.0 0.0 0.0 0.0 0.0
0.0 0.0 0.0 0.0 0.0 0.0 0.0 0.0
0.0 0.0 0.0 0.0 0.0 0.0 0.0 0.0
0.0 0.0 0.0 0.0 0.0 0.0 0.0 0.0
0.0 0.0 0.0 0.0 0.0 0.0 0.0 0.0
0.0 0.0 0.0 0.0 0.0 0.0 0.0 0.0
0.0 0.0 0.0 0.0 0.0 0.0 0.0 0.0
0.0 0.0 0.0 0.0 0.0 0.0 0.0 0.0
0.0 0.0 0.0 0.0 0.0 0.0 0.0 0.0
0.0 0.0 0.0 0.0 0.0 0.0 0.0 0.0
0.0 0.0 0.0 0.0 0.0 0.0 0.0 0.0
0.0 0.0 0.0 0.0 0.0 0.0 0.0 0.0
0.0 0.0 0.0 0.0 0.0 0.0 0.0 0.0
0.0 0.0 0.0 0.0 0.0 0.0 0.0 0.0
0.0 0.0 0.0 0.0 0.0 0.0 0.0 0.0
0.0 0.0 0.0 0.0 0.0 0.0 0.0 0.0
0.0 0.0 0.0 0.0 0.0 0.0 0.0 0.0
0.0 0.0 0.0 0.0 0.0 0.0 0.0 0.0
0.0 0.0 0.0 0.0 0.0 0.0 0.0 0.0
0.0 0.0 0.0 0.0 0.0 0.0 0.0 0.0
0.0 0.0 0.0 0.0 0.0 0.0 0.0 0.0

unstack f4 [48]
00000000: 2ba1 8ebf b8a1 443d b619 c8bd 5d05 e5bc
00000010: 9892 e3be 272d 1d3f 7a2d e2be 42ec 563c
00000020: 1792 093f 65a6 f83e afb0 5cbe de64 febe
00000030: f636 893e 4373 b0be fbd3 bcbe 440f a6be
00000040: 5c9d 133e 6bcc 4d3e 6d45 923e d0d0 e53d
00000050: 9310 4d3e 401b 383e b2d9 213d cbe6 033f
00000060: 5731 fc3e 2bdc 453e 0434 52bd cecd a03e
00000070: f634 0b3f 81ff 523d 394e 4c3e 4604 bd3e
00000080: b1e9 f83c 6e0e 893e f7eb fd3d 9691 9ebd
00000090: 9387 8b3c a671 1f3e 6b0b 0ebe 6b3c 3bbe
000000a0: 01c1 bb3c acf7 19be 10a0 3c3e e354 26be
000000b0: 2803 84be 8f5f 7d3c 833f 3ebd 9774 913d
-1.1142935 0.04800579 -0.09770529 -0.027956659 -0.4444778 0.6139702 -0.4417532 0.013117852
0.5373854 0.4856445 -0.21551774 -0.4968633 0.26799744 -0.34462938 -0.36880478 -0.32433522
0.14415497 0.2009751 0.28568593 0.112214684 0.20025854 0.17979145 0.03951425 0.5152404
0.49256393 0.19322269 -0.051319137 0.31407017 0.54377687 0.0515132 0.19951715 0.36917323
0.03038487 0.2676882 0.12398522 -0.07742612 0.01703242 0.15570697 -0.13871543 -0.18284766
0.02291918 -0.15035886 0.18420434 -0.16243319 -0.25783658 0.0154646775 -0.04644729 0.07102316

unstack1 f4 [48]
00000000: 2ba1 8ebf b8a1 443d b619 c8bd 5d05 e5bc
00000010: 9892 e3be 272d 1d3f 7a2d e2be 42ec 563c
00000020: 1792 093f 65a6 f83e afb0 5cbe de64 febe
00000030: f636 893e 4373 b0be fbd3 bcbe 440f a6be
00000040: 5c9d 133e 6bcc 4d3e 6d45 923e d0d0 e53d
00000050: 9310 4d3e 401b 383e b2d9 213d cbe6 033f
00000060: 5731 fc3e 2bdc 453e 0434 52bd cecd a03e
00000070: f634 0b3f 81ff 523d 394e 4c3e 4604 bd3e
00000080: 3333 e33d 92c3 c83d 422d 7a3e dc90 f43c
00000090: 8057 c03c 4620 233e 23fa a8be 3caf 24be
000000a0: ade1 ac3d 1396 ebbd fb8a c73d efd3 63be
000000b0: 9b93 56be fbd2 073d 8e33 e4bd 8257 443e
-1.1142935 0.04800579 -0.09770529 -0.027956659 -0.4444778 0.6139702 -0.4417532 0.013117852
0.5373854 0.4856445 -0.21551774 -0.4968633 0.26799744 -0.34462938 -0.36880478 -0.32433522
0.14415497 0.2009751 0.28568593 0.112214684 0.20025854 0.17979145 0.03951425 0.5152404
0.49256393 0.19322269 -0.051319137 0.31407017 0.54377687 0.0515132 0.19951715 0.36917323
0.1109375 0.09802927 0.24431327 0.02985423 0.023479223 0.1593028 -0.3300334 -0.16082472
0.08441482 -0.11503234 0.09743305 -0.22248815 -0.20954745 0.03316019 -0.11142646 0.19174007

sequential_13/dense_15/MatMul f4 [1, 16]
00000000: f2c9 133e ca52 0f3f ccd1 113f f16d d6be
00000010: f65d ad3e 40dd bebd 49a7 0cbf a21c 8a3e
00000020: e013 743c be50 81be b2bc 33be 155f 0cbf
00000030: 43f7 373e 6383 983e 1105 fe3e 439a fc3e
0.14432505 0.559857 0.5696075 -0.41880754 0.3386075 -0.09319544 -0.54942757 0.2697497
0.014897317 -0.25256914 -0.1755245 -0.54832584 0.17965417 0.2978774 0.4961324 0.49336442

unstack2 f4 [48]
00000000: 2ba1 8ebf b8a1 443d b619 c8bd 5d05 e5bc
00000010: 9892 e3be 272d 1d3f 7a2d e2be 42ec 563c
00000020: 1792 093f 65a6 f83e afb0 5cbe de64 febe
00000030: f636 893e 4373 b0be fbd3 bcbe 440f a6be
00000040: 5c9d 133e 6bcc 4d3e 6d45 923e d0d0 e53d
00000050: 9310 4d3e 401b 383e b2d9 213d cbe6 033f
00000060: 5731 fc3e 2bdc 453e 0434 52bd cecd a03e
00000070: f634 0b3f 81ff 523d 394e 4c3e 4604 bd3e
00000080: b1e9 f83c 6e0e 893e f7eb fd3d 9691 9ebd
00000090: 9387 8b3c a671 1f3e 6b0b 0ebe 6b3c 3bbe
000000a0: 01c1 bb3c acf7 19be 10a0 3c3e e354 26be
000000b0: 2803 84be 8f5f 7d3c 833f 3ebd 9774 913d
-1.1142935 0.04800579 -0.09770529 -0.027956659 -0.4444778 0.6139702 -0.4417532 0.013117852
0.5373854 0.4856445 -0.21551774 -0.4968633 0.26799744 -0.34462938 -0.36880478 -0.32433522
0.14415497 0.2009751 0.28568593 0.112214684 0.20025854 0.17979145 0.03951425 0.5152404
0.49256393 0.19322269 -0.051319137 0.31407017 0.54377687 0.0515132 0.19951715 0.36917323
0.03038487 0.2676882 0.12398522 -0.07742612 0.01703242 0.15570697 -0.13871543 -0.18284766
0.02291918 -0.15035886 0.18420434 -0.16243319 -0.25783658 0.0154646775 -0.04644729 0.07102316

unstack3 f4 [48]
00000000: 2ba1 8ebf b8a1 443d b619 c8bd 5d05 e5bc
00000010: 9892 e3be 272d 1d3f 7a2d e2be 42ec 563c
00000020: 1792 093f 65a6 f83e afb0 5cbe de64 febe
00000030: f636 893e 4373 b0be fbd3 bcbe 440f a6be
00000040: 5c9d 133e 6bcc 4d3e 6d45 923e d0d0 e53d
00000050: 9310 4d3e 401b 383e b2d9 213d cbe6 033f
00000060: 5731 fc3e 2bdc 453e 0434 52bd cecd a03e
00000070: f634 0b3f 81ff 523d 394e 4c3e 4604 bd3e
00000080: 3333 e33d 92c3 c83d 422d 7a3e dc90 f43c
00000090: 8057 c03c 4620 233e 23fa a8be 3caf 24be
000000a0: ade1 ac3d 1396 ebbd fb8a c73d efd3 63be
000000b0: 9b93 56be fbd2 073d 8e33 e4bd 8257 443e
-1.1142935 0.04800579 -0.09770529 -0.027956659 -0.4444778 0.6139702 -0.4417532 0.013117852
0.5373854 0.4856445 -0.21551774 -0.4968633 0.26799744 -0.34462938 -0.36880478 -0.32433522
0.14415497 0.2009751 0.28568593 0.112214684 0.20025854 0.17979145 0.03951425 0.5152404
0.49256393 0.19322269 -0.051319137 0.31407017 0.54377687 0.0515132 0.19951715 0.36917323
0.1109375 0.09802927 0.24431327 0.02985423 0.023479223 0.1593028 -0.3300334 -0.16082472
0.08441482 -0.11503234 0.09743305 -0.22248815 -0.20954745 0.03316019 -0.11142646 0.19174007

while/MatMul_1 f4 [48, 16]
00000000: cd42 30be 4e2c b2be 766b 2f3e f6e6 e03e
00000010: dd6d 893f d9e1 443e f7d1 193e 1d57 3fbe
00000020: 4c0d 9a3d 9759 563f 4c3d 83bf fee2 253d
00000030: ad77 243f df35 71be 3183 db3e 6cb6 4cbe
00000040: a658 01be 63f5 a03f 0d1f 24be b2eb c93e
00000050: 12e0 c23e f3d7 e33e b8aa 593d e41b d7be
00000060: b2f6 39bf 3a79 3fbf b1c4 1a3e 2a5b e23e
00000070: d632 603f edec 33be 5073 60be e34e 6f3f
00000080: 95d1 95be 2566 203f 26ac 143f e180 43bf
00000090: 9453 9b3b 5ab1 233e 980a 17bf 52bb d73c
000000a0: ef8b 4ebe 087d 2cbe 260f 30bf 9f6b 83bf
000000b0: 1cf7 0f3e dc32 ea3d 8bc4 0abf addb 023f
000000c0: b3dd c9bd ef6a 9a3e 2bda 323f c1b4 0dbf
000000d0: 2d21 203d de40 7d3e ec30 03bf bcbd 4abe
000000e0: 474a 4dbe 95b9 38bf f8bd 1a3d 6b74 22bf
000000f0: e6ca 0ebf a9bb 8a3e 149f cbbe 61e8 813d
00000100: 0a04 713e b110 253f c2d6 073f 12c3 99bd
00000110: 4af0 433f 6736 9a3d 41c3 c7be dab0 06bf
00000120: 25a1 943e 2f6a 5abd d1cb 633d 2ba7 7ebd
00000130: da6a 1a3f 5e19 dd3d 3057 b1bc 3ec1 bd3e
00000140: 7a34 a03e f2e2 5f3e a673 673e 0352 dd3e
00000150: c357 ebba 92d5 963e 936c 25bf 69dd 44bf
00000160: 999d 18bf cd27 f1be 724b 493f d32a 753d
00000170: ea48 d73e 7fea 233d ee1a 503e 0747 8e3e
00000180: 8587 063f fcb1 343e 947f cd3e 5b1d 18bf
00000190: c462 733e 646e 3b3e 0f00 28bf 03be dfbe
000001a0: 6a80 bbbb a900 10bf f2f7 26be 088a 29bf
000001b0: 5d92 b03e e025 403d dcd4 a6be a842 773e
000001c0: d7f2 bfbe f7a6 32bd aafe 3c3d 8119 603e
000001d0: 4633 4cbe ed90 26be bfad 5abe 2547 4cbe
000001e0: e721 29bd ed49 033e e068 55bd d0de 7e3d
000001f0: f1a4 d03e 45f8 f7be fbaf a93c 28c3 54be
00000200: 5acf 0bbd e68e 993c adaf 12bd f701 91bd
00000210: 16d9 263e 32ab 1cbe 1485 91be b8a6 babe
00000220: a813 78be c59e 16bf 9481 d03e d2ba fdbe
00000230: 7dd0 9dbf ff73 913d 4ec1 d9be dfda f0bc
00000240: 32a0 293e 6f6b f23d 907a 8a3e 135f 983e
00000250: 2661 b5be 6659 823d db53 723e 30ea 5ebc
00000260: 1107 90be a585 c1be 2408 893e d0b8 22bf
00000270: ed76 d1be 0e0d 5a3d 7bb7 e6be 9f74 963e
00000280: feac 273f 6d02 d8be 26a4 0d3d 5f35 babe
00000290: fdfa be3e 1027 f7be 1d29 a73e 86f5 073f
000002a0: a4ed a03e 076a ef3e 0dab 583b 8c0e 203e
000002b0: 4ac4 1cbf 6848 103f 1dcc 1c3f e4ce e7bb
000002c0: 98d4 1abf e431 143f 88d0 d53e 0dd6 1dbe
000002d0: a36c 8c3d 15a9 30be 10e6 aabe 6a2a 90be
000002e0: 15db 17bd 4884 22bf 5b97 b8be cd25 50bf
000002f0: 40dc 413e 501f 04bd 23e3 c6be cd47 c43e
00000300: 6d0f 033f 31ed dc3c fc39 223f 9cc3 20be
00000310: 8158 7a3e 2e0e f63d 5cc5 cabe 0374 f5be
00000320: 2fe0 84bc 3ba2 b2bc c968 193f b500 45be
00000330: a48e 85be 9779 323e 0313 10be 2584 2b3e
00000340: 229a 9bbe 9f2a 763e 1ad4 a4be 95a5 533d
00000350: 9c9d 59bf d13d a43e 9827 a9bd 9c90 22be
00000360: ec1c 88bd 3ce6 b0be 6c83 c13e 7171 6d3d
00000370: b205 49be 3b4b 9a3c ff46 7bbe f1a8 8fbe
00000380: 69c4 36bd f993 54bf 2621 d8bd b187 483d
00000390: f065 3c3f 1d2b 11bc 1f3a 613f b9cf 853e
000003a0: af9e 843e 6bfb dc3d 1509 82be b47f 113f
000003b0: c974 f23c 8c74 debd cd1e 293f 6493 8fbe
000003c0: ba1b 83bf bd4e c33e 687f c23e 8003 14bf
000003d0: 9a47 8fbd 8b65 b83e eb54 a1be 1503 19bf
000003e0: d539 edbd 4f34 81bf 15f3 a23e 7fe9 dfbe
000003f0: 5ea2 663b 223e f7bd 0cd7 b8be 324b 3e3f
-0.17212982 -0.34799427 0.17130837 0.4392621 1.0736653 0.19226779 0.15021501 -0.18685575
0.075220674 0.83730453 -1.0253081 0.04049968 0.6424511 -0.23555706 0.4287353 -0.19991463
-0.12631473 1.2574886 -0.1602747 0.39437634 0.38061577 0.44500694 0.053141326 -0.42013466
-0.7264205 -0.7479435 0.15114094 0.44210178 0.8757757 -0.17570849 -0.21918988 0.93479747
-0.2926146 0.6265586 0.5807518 -0.7636853 0.004740188 0.15985623 -0.5900054 0.026334438
-0.20170568 -0.1684457 -0.68773115 -1.0267218 0.14059108 0.11435482 -0.5420615 0.5111645
-0.09856739 0.3015971 0.6986415 -0.55353934 0.03909414 0.24731776 -0.51246524 -0.1979894
-0.20047866 -0.72158176 0.037778825 -0.6345889 -0.5577835 0.27096298 -0.39769804 0.06343151
0.23536697 0.64478594 0.5306207 -0.0750791 0.76538527 0.07529908 -0.39016154 -0.52613604
0.29029194 -0.05332392 0.055614296 -0.062171143 0.6031929 0.10795854 -0.02164802 0.37061495
0.31290036 0.21863917 0.2260271 0.43226632 -0.0017955232 0.29459816 -0.64618796 -0.76900345
-0.59615475 -0.47100678 0.78630745 0.059855293 0.42047817 0.040018555 0.20322773 0.27788565
0.52550536 0.1764602 0.40136397 -0.5941979 0.23768145 0.1830383 -0.6562509 -0.43699655
-0.0057220953 -0.5625101 -0.16305521 -0.66226244 0.34486666 0.04691112 -0.32584274 0.24146521
-0.3748996 -0.04361626 0.046141304 0.21884729 -0.19941434 -0.16266222 -0.21355341 -0.19949014
-0.041292097 0.12821169 -0.05210197 0.06222421 0.4075084 -0.48431602 0.020713797 -0.20777571
-0.034133293 0.018744897 -0.03581207 -0.07080453 0.16293749 -0.15299681 -0.28421843 -0.3645532
-0.24226248 -0.58836013 0.4072386 -0.49556595 -1.232925 0.071022026 -0.42530292 -0.02940124
0.16565016 0.118368976 0.27046633 0.29760036 -0.3542568 0.06364708 0.23664801 -0.013605639
-0.2813039 -0.37797275 0.26764023 -0.6356325 -0.40911046 0.053235106 -0.4506186 0.2938585
0.6549834 -0.4218935 0.034580372 -0.36368844 0.37300864 -0.4827199 0.32648554 0.53109014
0.31431305 0.4676058 0.0033060939 0.15630549 -0.61237013 0.56360483 0.6124895 -0.007074224
-0.6048064 0.5788863 0.4176066 -0.15413685 0.06856658 -0.17252 -0.3337865 -0.2815736
-0.037074167 -0.63483095 -0.36052975 -0.8130768 0.18931675 -0.032256424 -0.38845167 0.3833603
0.5119541 0.02696857 0.6336973 -0.15699619 0.24447824 0.12014423 -0.39603698 -0.47940072
-0.01622018 -0.021805873 0.59925514 -0.19238551 -0.2608539 0.17429195 -0.14069752 0.16749628
-0.30391032 0.24039696 -0.3219307 0.051671583 -0.8500612 0.32078412 -0.08259505 -0.15875477
-0.066461414 -0.34550655 0.3779558 0.057969514 -0.19631079 0.0188347 -0.24538802 -0.2805858
-0.044620905 -0.8303829 -0.105531976 0.04895753 0.73593044 -0.008860377 0.8797931 0.26135042
0.25902316 0.10790142 -0.25397554 0.56835485 0.029596703 -0.10862073 0.66062623 -0.28042138
-1.0242836 0.3814601 0.37987828 -0.5781784 -0.06996079 0.3601497 -0.315101 -0.5977033
-0.11583296 -1.0094088 0.31826082 -0.4373283 0.0035191993 -0.12072398 -0.36101568 0.7433349

while/MatMul f4 [48, 9]
00000000: e675 013f dc24 1bbf 649e 0cbf 8992 49bf
00000010: ff16 e7be 76cf 5cbe efce 223e 3604 15be
00000020: 7955 513e 96be 33be d9f6 383d a9c2 153e
00000030: 86bd 5abf b7e1 443e 6e6f c0bd 12fc cc3d
00000040: d32f 95bc df79 a0be 36d3 3d3f 6b74 673f
00000050: fe41 7dbd d3ea 80be 79f1 b93e 923e 9dbd
00000060: e566 1d3e 4cf5 c23c 3d48 dabb 56d7 2d3f
00000070: 9b59 f83e 8a69 243e fd3b acbe 04af 003f
00000080: 08c3 00bd 1465 5b3d 5b11 50be 848e 913e
00000090: d259 9f3b 1d13 38bd 4f5f d1bd 9345 51bf
000000a0: 1e6d 8bbd ea68 95be 4499 6ebc 90e7 c83d
000000b0: 903a 9b3d 607d 53be 6521 7a3c b2a1 64bf
000000c0: ed5f 013f 53dc a03e f650 4bbd 3f9c 973e
000000d0: 9d1a 60be 0294 393f f159 133f dd33 43be
000000e0: dd43 2f3e c9fe e2bd 9f1e 3c3f c5d8 143e
000000f0: 2a88 873d 97e8 153e 58e1 c33c 2a6f d83e
00000100: 673a 69bf 64e7 c13e 5760 233f d283 e83e
00000110: 8263 34bd 36d2 ed3d 964c 8b3d be60 1dbf
00000120: 0f06 a7bf 2f3f b13e c1d3 133e d9e6 17bf
00000130: fa44 223e 40c1 54be a574 98bd a33f 62bd
00000140: a473 643e d948 e1bd 0565 133d ba92 8a3e
00000150: 0351 8dbc 5ae0 a6be 66fe 26be 9719 99bd
00000160: 1013 44be fd9b d53c 5739 92be 3c0f 5bbf
00000170: fea3 2dbe 5e9b bb3e 7190 64be 8e85 8d3c
00000180: 7ba8 3a3c f505 07be e79f 263f fa64 243f
00000190: e607 71bd 4767 11bc f3e9 0ebc 9905 d63e
000001a0: 23df d5ba cbde 0bbd 9da1 2a3e 8307 93be
000001b0: 526b 95bd 5c5f d23e 6752 023e 943d 5e3e
000001c0: be4a b6be 8567 8cbe 310d 3f3c 8486 d23d
000001d0: 9475 783e 2b04 223d 6595 c43e 5ab4 b03e
000001e0: 0f57 95be 04dd 8a3e 5cf3 363e 8c30 073d
000001f0: 0405 833e 2729 053d 4b94 6b3e 2a74 0bbf
00000200: a157 0dbf e9aa 58be 347f 77be 756f 3cbe
00000210: 4bc6 1dbe cdd2 f9bd 19ff 0c3e 75a1 95be
00000220: bf55 333e ca3b a5bb caca 9bbf 83c1 80bc
00000230: 896a 42bd 7b21 b8bb a302 06bd 4584 483d
00000240: fd6a debe ab1e a9be 78b3 b8be ae29 b23e
00000250: 7333 c6be 63f9 383d 1496 3d3d c338 85be
00000260: 357e 48be 9088 913d 9483 043f 6366 923d
00000270: 7ca0 c83a 57ed 853e 9eb6 963d 288c d4bc
00000280: d6fc 46be e810 113f 2449 533f e764 f73e
00000290: 7959 a5be 2e92 823f 8a56 f73d 91a9 debb
000002a0: ed7b 2a3d 09c2 89bd 39d2 c03e e3b1 303f
000002b0: 3ca2 303e 7ee6 0dbe 5abd 7d3f 6667 933e
000002c0: fdc2 75bc 4be5 b43d d16d 33be cb71 9e3d
000002d0: 9687 e33e 44ac c63e 708b 29bd 5a44 60be
000002e0: cf59 9ebc 241a cabc cdbe c2bd 7025 bc3e
000002f0: 11e8 69be 2af7 57be 40e6 f2bd 450a 0b3d
00000300: a177 a93e 046b 223e 518c 3bbe ca03 8bbe
00000310: c5f8 6f3e 10bc e03d cc12 3d3f 28b3 5bbf
00000320: cf6a 45bf b386 6f3f ec9f 36be 4440 3c3c
00000330: cd5b 34bd 326f 30be 1ada 57be 29d7 73be
00000340: afc6 04be d83f 873e 0414 bc3d 4fc3 6cbe
00000350: 5090 373d 6ce2 25be 9f03 3c3d 91ae febe
00000360: 6e1b 68be 299f 2d3e 6cd6 583e fde5 b83e
00000370: dccb 1f3e e29b b33e a512 0fbe efaf 62bd
00000380: 1207 833e 79a1 06be 52cd 0fbf 13a1 f03e
00000390: 11ff 303d 1fea fabe 2baa 55bd 2d48 dcbd
000003a0: beb2 e63d 6552 983d f9fb 9a3c 3245 d8bc
000003b0: b8ad b2bb 671b dfbe b9e0 26be 691b a23d
000003c0: ed55 29be 98cd 8bbe c4f5 193f b283 0f3f
000003d0: 96f4 953f baf0 61be 19fc c23e 895e de3d
000003e0: d272 2fbd a7a2 963d 7d3b 2c3d 98ce bc3d
000003f0: 4143 bdbe 4717 313d a938 dd3e a6b0 7f3f
0.50570524 -0.6060312 -0.54929185 -0.7873922 -0.45134732 -0.21563515 0.15899251 -0.14552388
0.20442761 -0.17553172 0.045157287 0.14625038 -0.8544544 0.19226728 -0.093962535 0.10009016
-0.01821128 -0.3134298 0.7415041 0.90412015 -0.061830513 -0.25179157 0.36317042 -0.0767795
0.15371282 0.023798607 -0.0066614435 0.679067 0.48505864 0.16055885 -0.33639517 0.5026705
-0.031435996 0.053563192 -0.2031912 0.28429043 0.0048630023 -0.044940103 -0.10223257 -0.81746787
-0.06807922 -0.29181606 -0.014562909 0.09809792 0.07579529 -0.20653296 0.015266751 -0.8930923
0.50536996 0.31418094 -0.049637757 0.29611394 -0.21885152 0.72491467 0.57559115 -0.19062753
0.17115732 -0.11083753 0.73484224 0.14535816 0.06617768 0.14639507 0.023911163 0.4227231
-0.9110474 0.3787185 0.6381888 0.4541307 -0.04404021 0.1161236 0.06801717 -0.6147574
-1.3048724 0.34618518 0.14436246 -0.5933662 0.15846625 -0.20776844 -0.07444123 -0.05523647
0.22309738 -0.11000223 0.03598501 0.27065068 -0.017250543 -0.32593042 -0.16307983 -0.07475584
-0.19147897 0.026075358 -0.28559372 -0.8557012 -0.1695709 0.36641973 -0.22320725 0.017275598
0.011392708 -0.13185866 0.6508774 0.6421658 -0.058845423 -0.008874721 -0.00872277 0.41801146
-0.001631711 -0.03414802 0.16663213 -0.28716668 -0.0729586 0.41088378 0.12726746 0.21703178
-0.356039 -0.2742273 0.01166086 0.10279563 0.24263602 0.039554756 0.3839523 0.34512597
-0.29167983 0.27121747 0.17866272 0.033005282 0.25589764 0.03250995 0.23005788 -0.5447413
-0.55211836 -0.21158947 -0.24169618 -0.18401892 -0.15407674 -0.1219841 0.13769187 -0.29224744
0.17513178 -0.005042528 -1.2171261 -0.015717274 -0.04746488 -0.0056192256 -0.03271736 0.048954267
-0.43441 -0.3303121 -0.36074424 0.34797424 -0.38711128 0.04515971 0.046285704 -0.26019868
-0.19579394 0.07106125 0.5176327 0.07148435 0.0015306617 0.26157638 0.0735905 -0.025945738
-0.19432387 0.5666642 0.8253348 0.4831917 -0.32294825 1.020086 0.12077053 -0.0067951162
0.04162209 -0.067264624 0.37660387 0.69021434 0.17249388 -0.13857457 0.9911705 0.28789824
-0.015000102 0.08832797 -0.1752236 0.07736548 0.4443938 0.38803303 -0.041392744 -0.21901074
-0.019329933 -0.024670668 -0.095090486 0.36747313 -0.22842433 -0.2109038 -0.11860323 0.03394534
0.33099082 0.15861136 -0.18315245 -0.27151328 0.23434742 0.1097337 0.73856807 -0.85820246
-0.771161 0.9356491 -0.17834443 0.0114899315 -0.04403286 -0.17229918 -0.21079293 -0.23812546
-0.12966417 0.26415896 0.09183505 -0.2312138 0.04481536 -0.16199654 0.04590189 -0.4974256
-0.22666714 0.16955246 0.21175545 0.36112967 0.1560511 0.35079867 -0.13971956 -0.055343565
0.25591332 -0.13147534 -0.5617267 0.4699789 0.043212 -0.49006745 -0.052164238 -0.10755954
0.11264561 0.074375905 0.018918978 -0.026400182 -0.005452838 -0.43575594 -0.16296662 0.07915384
-0.16536684 -0.27305293 0.60140634 0.56060326 1.1715267 -0.22064486 0.3808296 0.10857875
-0.04283411 0.07355242 0.04204892 0.09219092 -0.36965373 0.04323509 0.4320729 0.9987892
