lstm.h5.tflite (tflite, 26016 bytes, 6 tensors)

lstm_3/lstm_cell/bias f4 [128]
00000000: 17b8 e9bd 64d6 4fbc aee8 11be 2b19 4a3e
00000010: 335b bd3b 79af df3d 13f6 3abd c41d 133f
00000020: fd62 a3bd faba 62bd c30c 063f 5f22 8c3d
00000030: 632a 8ebd dbd4 6c3e 3bbf 59bd d0fa 7dbe
00000040: b07f 07be d493 d83d efd8 e6bd 7b22 0d3f
00000050: a563 04be 0cc5 a43d 5fb3 d53e 3339 30bd
00000060: 9ecf e3bd 6f3e 7fbe 39a4 f13d c894 31be
00000070: 96b8 613e 99a7 f03a 8de4 8f3d a806 473e
00000080: 704a 893f 33b7 7e3f 6fcf 433f d23d b03f
00000090: 31b2 863f 646e 043f fc78 9b3f e93a 843f
000000a0: 3b0b 683f 539c 8b3f 7f52 543f 2eb3 6a3f
000000b0: e4f2 bd3f 620f 353f 5c1a 7a3f c8fe 623f
000000c0: 3fa3 1f3f 06cd 863f cb1f 7f3f 8e38 673f
000000d0: a85e 4e3f 4339 b13f cbd8 593f 55ae 613f
000000e0: d82b 8b3f 3459 493f 3fa2 843f e2fa 633f
000000f0: 5eda aa3f c405 5c3f 8136 413f 0cb5 563f
00000100: 2785 f5bc d5a8 873d dd00 87bd 13e9 2abe
00000110: 1729 e1bc 7692 fd3c c49a 753d ef0c 04be
00000120: f3f7 91bd 39d2 25bd 7cbc 95bd 1454 89bd
00000130: 3888 3abd d976 de3d 2e1b 47bd 31f6 5abd
00000140: 94ba eebb 2938 9f3c 4d5f 013e 374a f23c
00000150: 8293 113e e8c4 833d 7ef5 8abd 2c9b ddbc
00000160: 18ef dcbd df87 4b3d 1ae7 523c 9ed7 563d
00000170: f8d7 20be 49f5 07bd 6bc3 f93c 3fb9 f5bd
00000180: c06b 64bd 4427 1c3e fe43 b1bd 35e2 193e
00000190: cb0b 223e 998e 37be f034 a33d 5535 773e
000001a0: 8294 81bd 7e04 0f3e 3b8f 183d 95b3 3e3e
000001b0: 0ae6 323d b818 64bc 4d79 603d ef6b 47be
000001c0: 3a58 cabd 2eea dd3c 6ae6 d63a b9a3 d13d
000001d0: fc9d c8bd 9ccd 223c 88ae 643e 7e34 c03c
000001e0: 2e5c 9abc 45b8 8abe 35ae 263e b8ff 9cbd
000001f0: e179 153e 68e2 d7bb be56 413b 5f8b 953b
-0.114120655 -0.012685392 -0.14248917 0.19736163 0.005778694 0.10922141 -0.04564483 0.57467294
-0.07977865 -0.055354096 0.5236322 0.06842493 -0.069416784 0.23128073 -0.053160887 -0.24802709
-0.13232303 0.10575071 -0.112718455 0.5513074 -0.12928636 0.08045396 0.41738412 -0.0430233
-0.11123584 -0.2492616 0.11798901 -0.17341912 0.2204307 0.0018360495 0.070260145 0.19436133
1.0725842 0.9949829 0.76488394 1.3768866 1.052313 0.5173094 1.2146297 1.0330478
0.90642136 1.0907081 0.8293838 0.91679657 1.4839749 0.707266 0.9769647 0.88670015
0.6235847 1.0531318 0.9965789 0.9032067 0.80613184 1.38456 0.85096425 0.88156635
1.0872755 0.7865174 1.0362014 0.8905469 1.334789 0.859463 0.7547379 0.83870006
-0.029970719 0.06623999 -0.065919615 -0.16690473 -0.027485413 0.030953627 0.05996205 -0.12895559
-0.07127371 -0.040483687 -0.07311341 -0.0670549 -0.045540065 0.10862512 -0.048609905 -0.053457443
-0.0072854254 0.019435959 0.1263401 0.029576404 0.14216426 0.06434041 -0.06785105 -0.02705153
-0.10787791 0.049690124 0.012872482 0.052451722 -0.15707386 -0.033192907 0.03048869 -0.119982235
-0.05576682 0.15249354 -0.086555466 0.15027697 0.15824811 -0.1792549 0.079690814 0.24141438
-0.06327154 0.13966557 0.03724597 0.18623193 0.043676414 -0.013921909 0.05480318 -0.19474767
-0.09880109 0.027089205 0.0016395573 0.10236306 -0.09795758 0.009936716 0.22332203 0.02346253
-0.018842783 -0.27093711 0.16277392 -0.07665962 0.14597274 -0.006588269 0.0029501165 0.0045637335

TensorArrayV2_1 f4 [72, 1, 32]
00000000: 0000 0000 0000 0000 0000 0000 0000 0000
00000010: 0000 0000 0000 0000 0000 0000 0000 0000
00000020: 0000 0000 0000 0000 0000 0000 0000 0000
00000030: 0000 0000 0000 0000 0000 0000 0000 0000
00000040: 0000 0000 0000 0000 0000 0000 0000 0000
00000050: 0000 0000 0000 0000 0000 0000 0000 0000
00000060: 0000 0000 0000 0000 0000 0000 0000 0000
00000070: 0000 0000 0000 0000 0000 0000 0000 0000
00000080: 0000 0000 0000 0000 0000 0000 0000 0000
00000090: 0000 0000 0000 0000 0000 0000 0000 0000
000000a0: 0000 0000 0000 0000 0000 0000 0000 0000
000000b0: 0000 0000 0000 0000 0000 0000 0000 0000
000000c0: 0000 0000 0000 0000 0000 0000 0000 0000
000000d0: 0000 0000 0000 0000 0000 0000 0000 0000
000000e0: 0000 0000 0000 0000 0000 0000 0000 0000
000000f0: 0000 0000 0000 0000 0000 0000 0000 0000
00000100: 0000 0000 0000 0000 0000 0000 0000 0000
00000110: 0000 0000 0000 0000 0000 0000 0000 0000
00000120: 0000 0000 0000 0000 0000 0000 0000 0000
00000130: 0000 0000 0000 0000 0000 0000 0000 0000
00000140: 0000 0000 0000 0000 0000 0000 0000 0000
00000150: 0000 0000 0000 0000 0000 0000 0000 0000
00000160: 0000 0000 0000 0000 0000 0000 0000 0000
00000170: 0000 0000 0000 0000 0000 0000 0000 0000
00000180: 0000 0000 0000 0000 0000 0000 0000 0000
00000190: 0000 0000 0000 0000 0000 0000 0000 0000
000001a0: 0000 0000 0000 0000 0000 0000 0000 0000
000001b0: 0000 0000 0000 0000 0000 0000 0000 0000
000001c0: 0000 0000 0000 0000 0000 0000 0000 0000
000001d0: 0000 0000 0000 0000 0000 0000 0000 0000
000001e0: 0000 0000 0000 0000 0000 0000 0000 0000
000001f0: 0000 0000 0000 0000 0000 0000 0000 0000
00000200: 0000 0000 0000 0000 0000 0000 0000 0000
00000210: 0000 0000 0000 0000 0000 0000 0000 0000
00000220: 0000 0000 0000 0000 0000 0000 0000 0000
00000230: 0000 0000 0000 0000 0000 0000 0000 0000
00000240: 0000 0000 0000 0000 0000 0000 0000 0000
00000250: 0000 0000 0000 0000 0000 0000 0000 0000
00000260: 0000 0000 0000 0000 0000 0000 0000 0000
00000270: 0000 0000 0000 0000 0000 0000 0000 0000
00000280: 0000 0000 0000 0000 0000 0000 0000 0000
00000290: 0000 0000 0000 0000 0000 0000 0000 0000
000002a0: 0000 0000 0000 0000 0000 0000 0000 0000
000002b0: 0000 0000 0000 0000 0000 0000 0000 0000
000002c0: 0000 0000 0000 0000 0000 0000 0000 0000
000002d0: 0000 0000 0000 0000 0000 0000 0000 0000
000002e0: 0000 0000 0000 0000 0000 0000 0000 0000
000002f0: 0000 0000 0000 0000 0000 0000 0000 0000
00000300: 0000 0000 0000 0000 0000 0000 0000 0000
00000310: 0000 0000 0000 0000 0000 0000 0000 0000
00000320: 0000 0000 0000 0000 0000 0000 0000 0000
00000330: 0000 0000 0000 0000 0000 0000 0000 0000
00000340: 0000 0000 0000 0000 0000 0000 0000 0000
00000350: 0000 0000 0000 0000 0000 0000 0000 0000
00000360: 0000 0000 0000 0000 0000 0000 0000 0000
00000370: 0000 0000 0000 0000 0000 0000 0000 0000
00000380: 0000 0000 0000 0000 0000 0000 0000 0000
00000390: 0000 0000 0000 0000 0000 0000 0000 0000
000003a0: 0000 0000 0000 0000 0000 0000 0000 0000
000003b0: 0000 0000 0000 0000 0000 0000 0000 0000
000003c0: 0000 0000 0000 0000 0000 0000 0000 0000
000003d0: 0000 0000 0000 0000 0000 0000 0000 0000
000003e0: 0000 0000 0000 0000 0000 0000 0000 0000
000003f0: 0000 0000 0000 0000 0000 0000 0000 0000
0.0 0.0 0.0 0.0 0.0 0.0 0.0 0.0
0.0 0.0 0.0 0.0 0.0 0.0 0.0 0.0
0.0 0.0 0.0 0.0 0.0 0.0 0.0 0.0
0.0 0.0 0.0 0.0 0.0 0.0 0.0 0.0
0.0 0.0 0.0 0.0 0.0 0.0 0.0 0.0
0.0 0.0 0.0 0.0 0.0 0.0 0.0 0.0
0.0 0.0 0.0 0.0 0.0 0.0 0.0 0.0
0.0 0.0 0.0 0.0 0.0 0.0 0.0 0.0
0.0 0.0 0.0 0.0 0.0 0.0 0.0 0.0
0.0 0.0 0.0 0.0 0.0 0.0 0.0 0.0
0.0 0.0 0.0 0.0 0.0 0.0 0.0 0.0
0.0 0.0 0.0 0.0 0.0 0.0 0.0 0.0
0.0 0.0 0.0 0.0 0.0 0.0 0.0 0.0
0.0 0.0 0.0 0.0 0.0 0.0 0.0 0.0
0.0 0.0 0.0 0.0 0.0 0.0 0.0 0.0
0.0 0.0 0.0 0.0 0.0 0.0 0.0 0.0
0.0 0.0 0.0 0.0 0.0 0.0 0.0 0.0
0.0 0.0 0.0 0.0 0.0 0.0 0.0 0.0
0.0 0.0 0.0 0.0 0.0 0.0 0.0 0.0
0.0 0.0 0.0 0.0 0.0 0.0 0.0 0.0
0.0 0.0 0.0 0.0 0.0 0.0 0.0 0.0
0.0 0.0 0.0 0.0 0.0 0.0 0.0 0.0
0.0 0.0 0.0 0.0 0.0 0.0 0.0 0.0
0.0 0.0 0.0 0.0 0.0 0.0 0.0 0.0
0.0 0.0 0.0 0.0 0.0 0.0 0.0 0.0
0.0 0.0 0.0 0.0 0.0 0.0 0.0 0.0
0.0 0.0 0.0 0.0 0.0 0.0 0.0 0.0
0.0 0.0 0.0 0.0 0.0 0.0 0.0 0.0
0.0 0.0 0.0 0.0 0.0 0.0 0.0 0.0
0.0 0.0 0.0 0.0 0.0 0.0 0.0 0.0
0.0 0.0 0.0 0.0 0.0 0.0 0.0 0.0
0.0 0.0 0.0 0.0 0.0 0.0 0.0 0.0

sequential_4/dense_6/MatMul f4 [1, 32]
00000000: a03d 99be 9825 453e 55a9 75be 46a9 ff3d
00000010: c0e4 6d3d f1b6 533f a481 dfbd 95d6 223f
00000020: 88e0 18be 21a7 013e d623 0ebf 205c 873e
00000030: e829 2ebe bda0 e43e c7cc 0f3e 0819 863e
00000040: dff4 573e e3ab 833e e183 82be ceaf c8be
00000050: 751e 02be f527 263e 525e c5be 2c73 8d3e
00000060: f610 1e3e 10c8 adbe 22d8 d2bd acbf 4abd
00000070: 530f 0ebd 3042 dd3e 1a8c f13e 10f5 12bf
-0.2992983 0.19252622 -0.23990376 0.12483458 0.05807948 0.8270102 -0.10913399 0.63608676
-0.14929402 0.12661411 -0.5552343 0.26437473 -0.17008173 0.44653884 0.1404296 0.26190972
0.21089505 0.25717077 -0.2549124 -0.39196628 -0.12706931 0.1622618 -0.38548523 0.27626932
0.15436158 -0.33941698 -0.1029513 -0.0494992 -0.034682583 0.4321456 0.47177202 -0.57405186

lstm_3/lstm_cell/bias1 f4 [128]
00000000: 17b8 e9bd 64d6 4fbc aee8 11be 2b19 4a3e
00000010: 335b bd3b 79af df3d 13f6 3abd c41d 133f
00000020: fd62 a3bd faba 62bd c30c 063f 5f22 8c3d
00000030: 632a 8ebd dbd4 6c3e 3bbf 59bd d0fa 7dbe
00000040: b07f 07be d493 d83d efd8 e6bd 7b22 0d3f
00000050: a563 04be 0cc5 a43d 5fb3 d53e 3339 30bd
00000060: 9ecf e3bd 6f3e 7fbe 39a4 f13d c894 31be
00000070: 96b8 613e 99a7 f03a 8de4 8f3d a806 473e
00000080: 704a 893f 33b7 7e3f 6fcf 433f d23d b03f
00000090: 31b2 863f 646e 043f fc78 9b3f e93a 843f
000000a0: 3b0b 683f 539c 8b3f 7f52 543f 2eb3 6a3f
000000b0: e4f2 bd3f 620f 353f 5c1a 7a3f c8fe 623f
000000c0: 3fa3 1f3f 06cd 863f cb1f 7f3f 8e38 673f
000000d0: a85e 4e3f 4339 b13f cbd8 593f 55ae 613f
000000e0: d82b 8b3f 3459 493f 3fa2 843f e2fa 633f
000000f0: 5eda aa3f c405 5c3f 8136 413f 0cb5 563f
00000100: 2785 f5bc d5a8 873d dd00 87bd 13e9 2abe
00000110: 1729 e1bc 7692 fd3c c49a 753d ef0c 04be
00000120: f3f7 91bd 39d2 25bd 7cbc 95bd 1454 89bd
00000130: 3888 3abd d976 de3d 2e1b 47bd 31f6 5abd
00000140: 94ba eebb 2938 9f3c 4d5f 013e 374a f23c
00000150: 8293 113e e8c4 833d 7ef5 8abd 2c9b ddbc
00000160: 18ef dcbd df87 4b3d 1ae7 523c 9ed7 563d
00000170: f8d7 20be 49f5 07bd 6bc3 f93c 3fb9 f5bd
00000180: c06b 64bd 4427 1c3e fe43 b1bd 35e2 193e
00000190: cb0b 223e 998e 37be f034 a33d 5535 773e
000001a0: 8294 81bd 7e04 0f3e 3b8f 183d 95b3 3e3e
000001b0: 0ae6 323d b818 64bc 4d79 603d ef6b 47be
000001c0: 3a58 cabd 2eea dd3c 6ae6 d63a b9a3 d13d
000001d0: fc9d c8bd 9ccd 223c 88ae 643e 7e34 c03c
000001e0: 2e5c 9abc 45b8 8abe 35ae 263e b8ff 9cbd
000001f0: e179 153e 68e2 d7bb be56 413b 5f8b 953b
-0.114120655 -0.012685392 -0.14248917 0.19736163 0.005778694 0.10922141 -0.04564483 0.57467294
-0.07977865 -0.055354096 0.5236322 0.06842493 -0.069416784 0.23128073 -0.053160887 -0.24802709
-0.13232303 0.10575071 -0.112718455 0.5513074 -0.12928636 0.08045396 0.41738412 -0.0430233
-0.11123584 -0.2492616 0.11798901 -0.17341912 0.2204307 0.0018360495 0.070260145 0.19436133
1.0725842 0.9949829 0.76488394 1.3768866 1.052313 0.5173094 1.2146297 1.0330478
0.90642136 1.0907081 0.8293838 0.91679657 1.4839749 0.707266 0.9769647 0.88670015
0.6235847 1.0531318 0.9965789 0.9032067 0.80613184 1.38456 0.85096425 0.88156635
1.0872755 0.7865174 1.0362014 0.8905469 1.334789 0.859463 0.7547379 0.83870006
-0.029970719 0.06623999 -0.065919615 -0.16690473 -0.027485413 0.030953627 0.05996205 -0.12895559
-0.07127371 -0.040483687 -0.07311341 -0.0670549 -0.045540065 0.10862512 -0.048609905 -0.053457443
-0.0072854254 0.019435959 0.1263401 0.029576404 0.14216426 0.06434041 -0.06785105 -0.02705153
-0.10787791 0.049690124 0.012872482 0.052451722 -0.15707386 -0.033192907 0.03048869 -0.119982235
-0.05576682 0.15249354 -0.086555466 0.15027697 0.15824811 -0.1792549 0.079690814 0.24141438
-0.06327154 0.13966557 0.03724597 0.18623193 0.043676414 -0.013921909 0.05480318 -0.19474767
-0.09880109 0.027089205 0.0016395573 0.10236306 -0.09795758 0.009936716 0.22332203 0.02346253
-0.018842783 -0.27093711 0.16277392 -0.07665962 0.14597274 -0.006588269 0.0029501165 0.0045637335

while/MatMul_1 i1 [128, 32] scale=0.011011396 zero_point=0
00000000: 2825 fd03 1414 fe1a 180c d21b 1005 1418
00000010: 000d ded6 06e5 ffda 03f2 0dfb f0f2 1309
00000020: ff0d f7f0 f505 0600 dee9 e4e7 0015 0afb
00000030: 15fc ffff 01f7 11e8 eff8 f2fb fd08 f901
00000040: 0e0e fcef fdf6 07ea 07ff 0be0 ee03 0b0e
00000050: fbfc fe20 e90e 07f4 00fb ed13 13ed ecff
00000060: 00f8 fe05 f7f0 030f e8ee fdff 0203 0aec
00000070: 0e11 0305 02fa f907 0afa fef5 0f0c fa0a
00000080: 1508 0604 f406 13f6 ebf5 0fe1 f8fd 0b33
00000090: 02e9 0416 0d0b 0ce8 0102 00fe fef0 f903
000000a0: c74c e5d7 c605 3821 f8de e611 e51d 2124
000000b0: f81e e3ef 093e e4ec e5f6 cc46 c4f0 0b4f
000000c0: 02ef 1514 f7f0 03f8 0505 f9f1 0eea 01f4
000000d0: 17ff f006 0eed fff4 0dfb 08fa 0aff ed0b
000000e0: bb0d 11fe fdf4 ff05 a1d7 08e9 0ffa 0fe5
000000f0: 0102 f3f8 fc05 da04 e811 c636 1128 0d2e
0.44045582 0.40742165 -0.033034187 0.033034187 0.22022791 0.22022791 -0.022022791 0.28629628
0.2642735 0.13213675 -0.5065242 0.29730767 0.17618233 0.055056978 0.22022791 0.2642735
0.0 0.14314814 -0.37438744 -0.4624786 0.06606837 -0.29730767 -0.011011396 -0.41843304
0.033034187 -0.15415955 0.14314814 -0.055056978 -0.17618233 -0.15415955 0.20921652 0.09910256
-0.011011396 0.14314814 -0.09910256 -0.17618233 -0.121125355 0.055056978 0.06606837 0.0
-0.37438744 -0.2532621 -0.3083191 -0.2752849 0.0 0.2312393 0.110113956 -0.055056978
0.2312393 -0.044045582 -0.011011396 -0.011011396 0.011011396 -0.09910256 0.18719372 -0.2642735
-0.18719372 -0.088091165 -0.15415955 -0.055056978 -0.033034187 0.088091165 -0.07707977 0.011011396
0.15415955 0.15415955 -0.044045582 -0.18719372 -0.033034187 -0.110113956 0.07707977 -0.24225071
0.07707977 -0.011011396 0.121125355 -0.35236466 -0.19820511 0.033034187 0.121125355 0.15415955
-0.055056978 -0.044045582 -0.022022791 0.35236466 -0.2532621 0.15415955 0.07707977 -0.13213675
0.0 -0.055056978 -0.20921652 0.20921652 0.20921652 -0.20921652 -0.22022791 -0.011011396
0.0 -0.088091165 -0.022022791 0.055056978 -0.09910256 -0.17618233 0.033034187 0.16517094
-0.2642735 -0.19820511 -0.033034187 -0.011011396 0.022022791 0.033034187 0.110113956 -0.22022791
0.15415955 0.18719372 0.033034187 0.055056978 0.022022791 -0.06606837 -0.07707977 0.07707977
0.110113956 -0.06606837 -0.022022791 -0.121125355 0.16517094 0.13213675 -0.06606837 0.110113956
0.2312393 0.088091165 0.06606837 0.044045582 -0.13213675 0.06606837 0.20921652 -0.110113956
-0.2312393 -0.121125355 0.16517094 -0.34135327 -0.088091165 -0.033034187 0.121125355 0.5615812
0.022022791 -0.2532621 0.044045582 0.24225071 0.14314814 0.121125355 0.13213675 -0.2642735
0.011011396 0.022022791 0.0 -0.022022791 -0.022022791 -0.17618233 -0.07707977 0.033034187
-0.62764955 0.8368661 -0.29730767 -0.45146722 -0.63866097 0.055056978 0.6166382 0.36337605
-0.088091165 -0.37438744 -0.28629628 0.18719372 -0.29730767 0.31933048 0.36337605 0.39641023
-0.088091165 0.33034188 -0.31933048 -0.18719372 0.09910256 0.68270653 -0.3083191 -0.22022791
-0.29730767 -0.110113956 -0.57259256 0.77079767 -0.66068375 -0.17618233 0.121125355 0.8699002
0.022022791 -0.18719372 0.2312393 0.22022791 -0.09910256 -0.17618233 0.033034187 -0.088091165
0.055056978 0.055056978 -0.07707977 -0.16517094 0.15415955 -0.24225071 0.011011396 -0.13213675
0.2532621 -0.011011396 -0.17618233 0.06606837 0.15415955 -0.20921652 -0.011011396 -0.13213675
0.14314814 -0.055056978 0.088091165 -0.06606837 0.110113956 -0.011011396 -0.20921652 0.121125355
-0.7597863 0.14314814 0.18719372 -0.022022791 -0.033034187 -0.13213675 -0.011011396 0.055056978
-1.0460826 -0.45146722 0.088091165 -0.2532621 0.16517094 -0.06606837 0.16517094 -0.29730767
0.011011396 0.022022791 -0.14314814 -0.088091165 -0.044045582 0.055056978 -0.41843304 0.044045582
-0.2642735 0.18719372 -0.63866097 0.59461534 0.18719372 0.44045582 0.14314814 0.5065242

while/MatMul i1 [128, 9] scale=0.011062459 zero_point=0
00000000: 3be3 0b32 f703 fbf2 01e5 e6f6 3703 f9f2
00000010: fe0c f82f 1322 f7f1 05da 0219 fcfd 01ff
00000020: 0204 0511 d4fe f8ed 1104 030d 16fd fa07
00000030: f7f8 f20b ff29 261b f008 e40c 1305 1503
00000040: e7f4 48df 02f7 f1de 0d12 0a17 ffff ff01
00000050: 3126 f707 f106 f7fa 020c f0db f81e e4fa
00000060: fffa 082e eb16 65f0 fbfb 02ff e6eb 05f7
00000070: e700 04fc 090b eef2 fbe7 fcfc 0b10 f8da
00000080: 02cd f2f8 f912 efdf 1f04 1000 f705 0508
00000090: ccf7 ff0f f30a 04f3 040b 17e7 edf1 e300
000000a0: fdde 0904 ff1c 1509 fb08 07f9 09ee 1e01
000000b0: f7fd 06fc 2111 ff06 fe0f 0402 ffee daef
000000c0: fa02 07fe f806 f804 fd20 d812 091d 0f12
000000d0: dc01 140c 06f6 00db 02f8 fd00 f30e f7ee
000000e0: 14f5 00fd 0ef3 03fb 18d4 d5e6 fdf7 0607
000000f0: fa00 09ed d20e ede8 0f06 f01e e2e9 0e18
0.6526851 -0.3208113 0.12168705 0.55312294 -0.09956213 0.03318738 -0.055312295 -0.15487443
0.011062459 -0.2986864 -0.28762394 -0.11062459 0.6084353 0.03318738 -0.077437215 -0.15487443
-0.022124918 0.13274951 -0.08849967 0.51993555 0.21018672 0.3761236 -0.09956213 -0.16593689
0.055312295 -0.42037344 0.022124918 0.27656147 -0.044249836 -0.03318738 0.011062459 -0.011062459
0.022124918 0.044249836 0.055312295 0.1880618 -0.4867482 -0.022124918 -0.08849967 -0.21018672
0.1880618 0.044249836 0.03318738 0.14381197 0.2433741 -0.03318738 -0.06637476 0.077437215
-0.09956213 -0.08849967 -0.15487443 0.12168705 -0.011062459 0.45356083 0.42037344 0.2986864
-0.17699935 0.08849967 -0.30974886 0.13274951 0.21018672 0.055312295 0.23231164 0.03318738
-0.27656147 -0.13274951 0.79649705 -0.36506116 0.022124918 -0.09956213 -0.16593689 -0.3761236
0.14381197 0.19912426 0.11062459 0.25443655 -0.011062459 -0.011062459 -0.011062459 0.011062459
0.5420605 0.42037344 -0.09956213 0.077437215 -0.16593689 0.06637476 -0.09956213 -0.06637476
0.022124918 0.13274951 -0.17699935 -0.409311 -0.08849967 0.33187377 -0.30974886 -0.06637476
-0.011062459 -0.06637476 0.08849967 0.5088731 -0.23231164 0.2433741 1.1173084 -0.17699935
-0.055312295 -0.055312295 0.022124918 -0.011062459 -0.28762394 -0.23231164 0.055312295 -0.09956213
-0.27656147 0.0 0.044249836 -0.044249836 0.09956213 0.12168705 -0.19912426 -0.15487443
-0.055312295 -0.27656147 -0.044249836 -0.044249836 0.12168705 0.17699935 -0.08849967 -0.42037344
0.022124918 -0.56418544 -0.15487443 -0.08849967 -0.077437215 0.19912426 -0.1880618 -0.36506116
0.34293622 0.044249836 0.17699935 0.0 -0.09956213 0.055312295 0.055312295 0.08849967
-0.5752479 -0.09956213 -0.011062459 0.16593689 -0.14381197 0.11062459 0.044249836 -0.14381197
0.044249836 0.12168705 0.25443655 -0.27656147 -0.21018672 -0.16593689 -0.3208113 0.0
-0.03318738 -0.3761236 0.09956213 0.044249836 -0.011062459 0.30974886 0.23231164 0.09956213
-0.055312295 0.08849967 0.077437215 -0.077437215 0.09956213 -0.19912426 0.33187377 0.011062459
-0.09956213 -0.03318738 0.06637476 -0.044249836 0.36506116 0.1880618 -0.011062459 0.06637476
-0.022124918 0.16593689 0.044249836 0.022124918 -0.011062459 -0.19912426 -0.42037344 -0.1880618
-0.06637476 0.022124918 0.077437215 -0.022124918 -0.08849967 0.06637476 -0.08849967 0.044249836
-0.03318738 0.3539987 -0.44249836 0.19912426 0.09956213 0.3208113 0.16593689 0.19912426
-0.39824852 0.011062459 0.22124918 0.13274951 0.06637476 -0.11062459 0.0 -0.409311
0.022124918 -0.08849967 -0.03318738 0.0 -0.14381197 0.15487443 -0.09956213 -0.19912426
0.22124918 -0.12168705 0.0 -0.03318738 0.15487443 -0.14381197 0.03318738 -0.055312295
0.26549903 -0.4867482 -0.47568575 -0.28762394 -0.03318738 -0.09956213 0.06637476 0.077437215
-0.06637476 0.0 0.09956213 -0.21018672 -0.5088731 0.15487443 -0.21018672 -0.26549903
0.16593689 0.06637476 -0.17699935 0.33187377 -0.33187377 -0.25443655 0.15487443 0.26549903
